<?xml version="1.0"?>
<net name="torch_jit" version="11">
	<layers>
		<layer id="0" name="images" type="Parameter" version="opset1">
			<data shape="42,3,224,224" element_type="f32" />
			<output>
				<port id="0" precision="FP32" names="images">
					<dim>42</dim>
					<dim>3</dim>
					<dim>224</dim>
					<dim>224</dim>
				</port>
			</output>
		</layer>
		<layer id="1" name="/Expand_compressed" type="Const" version="opset1">
			<data element_type="f16" shape="42, 1, 1024" offset="0" size="86016" />
			<output>
				<port id="0" precision="FP16" names="/Expand_output_0">
					<dim>42</dim>
					<dim>1</dim>
					<dim>1024</dim>
				</port>
			</output>
		</layer>
		<layer id="2" name="/Expand" type="Convert" version="opset1">
			<data destination_type="f32" />
			<rt_info>
				<attribute name="decompression" version="0" />
			</rt_info>
			<input>
				<port id="0" precision="FP16">
					<dim>42</dim>
					<dim>1</dim>
					<dim>1024</dim>
				</port>
			</input>
			<output>
				<port id="1" precision="FP32">
					<dim>42</dim>
					<dim>1</dim>
					<dim>1024</dim>
				</port>
			</output>
		</layer>
		<layer id="3" name="patch_embed.proj.weight_compressed" type="Const" version="opset1">
			<data element_type="f16" shape="1024, 3, 14, 14" offset="86016" size="1204224" />
			<output>
				<port id="0" precision="FP16" names="patch_embed.proj.weight">
					<dim>1024</dim>
					<dim>3</dim>
					<dim>14</dim>
					<dim>14</dim>
				</port>
			</output>
		</layer>
		<layer id="4" name="patch_embed.proj.weight" type="Convert" version="opset1">
			<data destination_type="f32" />
			<rt_info>
				<attribute name="decompression" version="0" />
			</rt_info>
			<input>
				<port id="0" precision="FP16">
					<dim>1024</dim>
					<dim>3</dim>
					<dim>14</dim>
					<dim>14</dim>
				</port>
			</input>
			<output>
				<port id="1" precision="FP32">
					<dim>1024</dim>
					<dim>3</dim>
					<dim>14</dim>
					<dim>14</dim>
				</port>
			</output>
		</layer>
		<layer id="5" name="/patch_embed/proj/Conv/WithoutBiases" type="Convolution" version="opset1">
			<data strides="14, 14" dilations="1, 1" pads_begin="0, 0" pads_end="0, 0" auto_pad="explicit" />
			<input>
				<port id="0" precision="FP32">
					<dim>42</dim>
					<dim>3</dim>
					<dim>224</dim>
					<dim>224</dim>
				</port>
				<port id="1" precision="FP32">
					<dim>1024</dim>
					<dim>3</dim>
					<dim>14</dim>
					<dim>14</dim>
				</port>
			</input>
			<output>
				<port id="2" precision="FP32">
					<dim>42</dim>
					<dim>1024</dim>
					<dim>16</dim>
					<dim>16</dim>
				</port>
			</output>
		</layer>
		<layer id="6" name="Reshape_356_compressed" type="Const" version="opset1">
			<data element_type="f16" shape="1, 1024, 1, 1" offset="1290240" size="2048" />
			<output>
				<port id="0" precision="FP16">
					<dim>1</dim>
					<dim>1024</dim>
					<dim>1</dim>
					<dim>1</dim>
				</port>
			</output>
		</layer>
		<layer id="7" name="Reshape_356" type="Convert" version="opset1">
			<data destination_type="f32" />
			<rt_info>
				<attribute name="decompression" version="0" />
			</rt_info>
			<input>
				<port id="0" precision="FP16">
					<dim>1</dim>
					<dim>1024</dim>
					<dim>1</dim>
					<dim>1</dim>
				</port>
			</input>
			<output>
				<port id="1" precision="FP32">
					<dim>1</dim>
					<dim>1024</dim>
					<dim>1</dim>
					<dim>1</dim>
				</port>
			</output>
		</layer>
		<layer id="8" name="/patch_embed/proj/Conv" type="Add" version="opset1">
			<data auto_broadcast="numpy" />
			<input>
				<port id="0" precision="FP32">
					<dim>42</dim>
					<dim>1024</dim>
					<dim>16</dim>
					<dim>16</dim>
				</port>
				<port id="1" precision="FP32">
					<dim>1</dim>
					<dim>1024</dim>
					<dim>1</dim>
					<dim>1</dim>
				</port>
			</input>
			<output>
				<port id="2" precision="FP32" names="/patch_embed/proj/Conv_output_0">
					<dim>42</dim>
					<dim>1024</dim>
					<dim>16</dim>
					<dim>16</dim>
				</port>
			</output>
		</layer>
		<layer id="9" name="Constant_12310" type="Const" version="opset1">
			<data element_type="i64" shape="3" offset="1292288" size="24" />
			<rt_info>
				<attribute name="precise" version="0" />
			</rt_info>
			<output>
				<port id="0" precision="I64">
					<dim>3</dim>
				</port>
			</output>
		</layer>
		<layer id="10" name="/patch_embed/Reshape" type="Reshape" version="opset1">
			<data special_zero="true" />
			<input>
				<port id="0" precision="FP32">
					<dim>42</dim>
					<dim>1024</dim>
					<dim>16</dim>
					<dim>16</dim>
				</port>
				<port id="1" precision="I64">
					<dim>3</dim>
				</port>
			</input>
			<output>
				<port id="2" precision="FP32" names="/patch_embed/Reshape_output_0">
					<dim>42</dim>
					<dim>1024</dim>
					<dim>256</dim>
				</port>
			</output>
		</layer>
		<layer id="11" name="Constant_374" type="Const" version="opset1">
			<data element_type="i64" shape="3" offset="1292312" size="24" />
			<output>
				<port id="0" precision="I64">
					<dim>3</dim>
				</port>
			</output>
		</layer>
		<layer id="12" name="/patch_embed/Transpose" type="Transpose" version="opset1">
			<input>
				<port id="0" precision="FP32">
					<dim>42</dim>
					<dim>1024</dim>
					<dim>256</dim>
				</port>
				<port id="1" precision="I64">
					<dim>3</dim>
				</port>
			</input>
			<output>
				<port id="2" precision="FP32" names="/patch_embed/Transpose_output_0">
					<dim>42</dim>
					<dim>256</dim>
					<dim>1024</dim>
				</port>
			</output>
		</layer>
		<layer id="13" name="/Concat_1" type="Concat" version="opset1">
			<data axis="1" />
			<input>
				<port id="0" precision="FP32">
					<dim>42</dim>
					<dim>1</dim>
					<dim>1024</dim>
				</port>
				<port id="1" precision="FP32">
					<dim>42</dim>
					<dim>256</dim>
					<dim>1024</dim>
				</port>
			</input>
			<output>
				<port id="2" precision="FP32" names="/Concat_1_output_0">
					<dim>42</dim>
					<dim>257</dim>
					<dim>1024</dim>
				</port>
			</output>
		</layer>
		<layer id="14" name="/Cast_1_compressed" type="Const" version="opset1">
			<data element_type="f16" shape="1, 257, 1024" offset="1292336" size="526336" />
			<output>
				<port id="0" precision="FP16" names="/Cast_1_output_0">
					<dim>1</dim>
					<dim>257</dim>
					<dim>1024</dim>
				</port>
			</output>
		</layer>
		<layer id="15" name="/Cast_1" type="Convert" version="opset1">
			<data destination_type="f32" />
			<rt_info>
				<attribute name="decompression" version="0" />
			</rt_info>
			<input>
				<port id="0" precision="FP16">
					<dim>1</dim>
					<dim>257</dim>
					<dim>1024</dim>
				</port>
			</input>
			<output>
				<port id="1" precision="FP32">
					<dim>1</dim>
					<dim>257</dim>
					<dim>1024</dim>
				</port>
			</output>
		</layer>
		<layer id="16" name="/Add" type="Add" version="opset1">
			<data auto_broadcast="numpy" />
			<input>
				<port id="0" precision="FP32">
					<dim>42</dim>
					<dim>257</dim>
					<dim>1024</dim>
				</port>
				<port id="1" precision="FP32">
					<dim>1</dim>
					<dim>257</dim>
					<dim>1024</dim>
				</port>
			</input>
			<output>
				<port id="2" precision="FP32" names="/Add_output_0">
					<dim>42</dim>
					<dim>257</dim>
					<dim>1024</dim>
				</port>
			</output>
		</layer>
		<layer id="17" name="Constant_11983_compressed" type="Const" version="opset1">
			<data element_type="f16" shape="1, 1, 3072" offset="1818672" size="6144" />
			<output>
				<port id="0" precision="FP16">
					<dim>1</dim>
					<dim>1</dim>
					<dim>3072</dim>
				</port>
			</output>
		</layer>
		<layer id="18" name="Constant_11983" type="Convert" version="opset1">
			<data destination_type="f32" />
			<rt_info>
				<attribute name="decompression" version="0" />
			</rt_info>
			<input>
				<port id="0" precision="FP16">
					<dim>1</dim>
					<dim>1</dim>
					<dim>3072</dim>
				</port>
			</input>
			<output>
				<port id="1" precision="FP32">
					<dim>1</dim>
					<dim>1</dim>
					<dim>3072</dim>
				</port>
			</output>
		</layer>
		<layer id="19" name="Range_450" type="Const" version="opset1">
			<data element_type="i64" shape="1" offset="1824816" size="8" />
			<output>
				<port id="0" precision="I64">
					<dim>1</dim>
				</port>
			</output>
		</layer>
		<layer id="20" name="MVN_451" type="MVN" version="opset6">
			<data eps="9.9999999747524271e-07" normalize_variance="true" eps_mode="INSIDE_SQRT" />
			<input>
				<port id="0" precision="FP32">
					<dim>42</dim>
					<dim>257</dim>
					<dim>1024</dim>
				</port>
				<port id="1" precision="I64">
					<dim>1</dim>
				</port>
			</input>
			<output>
				<port id="2" precision="FP32">
					<dim>42</dim>
					<dim>257</dim>
					<dim>1024</dim>
				</port>
			</output>
		</layer>
		<layer id="21" name="Constant_11981_compressed" type="Const" version="opset1">
			<data element_type="f16" shape="1, 1, 1024" offset="1824824" size="2048" />
			<output>
				<port id="0" precision="FP16">
					<dim>1</dim>
					<dim>1</dim>
					<dim>1024</dim>
				</port>
			</output>
		</layer>
		<layer id="22" name="Constant_11981" type="Convert" version="opset1">
			<data destination_type="f32" />
			<rt_info>
				<attribute name="decompression" version="0" />
			</rt_info>
			<input>
				<port id="0" precision="FP16">
					<dim>1</dim>
					<dim>1</dim>
					<dim>1024</dim>
				</port>
			</input>
			<output>
				<port id="1" precision="FP32">
					<dim>1</dim>
					<dim>1</dim>
					<dim>1024</dim>
				</port>
			</output>
		</layer>
		<layer id="23" name="Multiply_452" type="Multiply" version="opset1">
			<data auto_broadcast="numpy" />
			<input>
				<port id="0" precision="FP32">
					<dim>42</dim>
					<dim>257</dim>
					<dim>1024</dim>
				</port>
				<port id="1" precision="FP32">
					<dim>1</dim>
					<dim>1</dim>
					<dim>1024</dim>
				</port>
			</input>
			<output>
				<port id="2" precision="FP32">
					<dim>42</dim>
					<dim>257</dim>
					<dim>1024</dim>
				</port>
			</output>
		</layer>
		<layer id="24" name="Constant_11982_compressed" type="Const" version="opset1">
			<data element_type="f16" shape="1, 1, 1024" offset="1826872" size="2048" />
			<output>
				<port id="0" precision="FP16">
					<dim>1</dim>
					<dim>1</dim>
					<dim>1024</dim>
				</port>
			</output>
		</layer>
		<layer id="25" name="Constant_11982" type="Convert" version="opset1">
			<data destination_type="f32" />
			<rt_info>
				<attribute name="decompression" version="0" />
			</rt_info>
			<input>
				<port id="0" precision="FP16">
					<dim>1</dim>
					<dim>1</dim>
					<dim>1024</dim>
				</port>
			</input>
			<output>
				<port id="1" precision="FP32">
					<dim>1</dim>
					<dim>1</dim>
					<dim>1024</dim>
				</port>
			</output>
		</layer>
		<layer id="26" name="/blocks.0/norm1/LayerNormalization" type="Add" version="opset1">
			<data auto_broadcast="numpy" />
			<input>
				<port id="0" precision="FP32">
					<dim>42</dim>
					<dim>257</dim>
					<dim>1024</dim>
				</port>
				<port id="1" precision="FP32">
					<dim>1</dim>
					<dim>1</dim>
					<dim>1024</dim>
				</port>
			</input>
			<output>
				<port id="2" precision="FP32" names="/blocks.0/norm1/LayerNormalization_output_0">
					<dim>42</dim>
					<dim>257</dim>
					<dim>1024</dim>
				</port>
			</output>
		</layer>
		<layer id="27" name="Transpose_7207_compressed" type="Const" version="opset1">
			<data element_type="f16" shape="3072, 1024" offset="1828920" size="6291456" />
			<output>
				<port id="0" precision="FP16">
					<dim>3072</dim>
					<dim>1024</dim>
				</port>
			</output>
		</layer>
		<layer id="28" name="Transpose_7207" type="Convert" version="opset1">
			<data destination_type="f32" />
			<rt_info>
				<attribute name="decompression" version="0" />
			</rt_info>
			<input>
				<port id="0" precision="FP16">
					<dim>3072</dim>
					<dim>1024</dim>
				</port>
			</input>
			<output>
				<port id="1" precision="FP32">
					<dim>3072</dim>
					<dim>1024</dim>
				</port>
			</output>
		</layer>
		<layer id="29" name="/blocks.0/attn/qkv/MatMul" type="MatMul" version="opset1">
			<data transpose_a="false" transpose_b="true" />
			<input>
				<port id="0" precision="FP32">
					<dim>42</dim>
					<dim>257</dim>
					<dim>1024</dim>
				</port>
				<port id="1" precision="FP32">
					<dim>3072</dim>
					<dim>1024</dim>
				</port>
			</input>
			<output>
				<port id="2" precision="FP32" names="/blocks.0/attn/qkv/MatMul_output_0">
					<dim>42</dim>
					<dim>257</dim>
					<dim>3072</dim>
				</port>
			</output>
		</layer>
		<layer id="30" name="/blocks.0/attn/qkv/Add" type="Add" version="opset1">
			<data auto_broadcast="numpy" />
			<input>
				<port id="0" precision="FP32">
					<dim>1</dim>
					<dim>1</dim>
					<dim>3072</dim>
				</port>
				<port id="1" precision="FP32">
					<dim>42</dim>
					<dim>257</dim>
					<dim>3072</dim>
				</port>
			</input>
			<output>
				<port id="2" precision="FP32" names="/blocks.0/attn/qkv/Add_output_0">
					<dim>42</dim>
					<dim>257</dim>
					<dim>3072</dim>
				</port>
			</output>
		</layer>
		<layer id="31" name="/blocks.0/attn/Concat" type="Const" version="opset1">
			<data element_type="i64" shape="5" offset="8120376" size="40" />
			<rt_info>
				<attribute name="precise" version="0" />
			</rt_info>
			<output>
				<port id="0" precision="I64" names="/blocks.0/attn/Concat_output_0">
					<dim>5</dim>
				</port>
			</output>
		</layer>
		<layer id="32" name="/blocks.0/attn/Reshape" type="Reshape" version="opset1">
			<data special_zero="true" />
			<input>
				<port id="0" precision="FP32">
					<dim>42</dim>
					<dim>257</dim>
					<dim>3072</dim>
				</port>
				<port id="1" precision="I64">
					<dim>5</dim>
				</port>
			</input>
			<output>
				<port id="2" precision="FP32" names="/blocks.0/attn/Reshape_output_0">
					<dim>42</dim>
					<dim>257</dim>
					<dim>3</dim>
					<dim>16</dim>
					<dim>64</dim>
				</port>
			</output>
		</layer>
		<layer id="33" name="Constant_476" type="Const" version="opset1">
			<data element_type="i64" shape="5" offset="8120416" size="40" />
			<output>
				<port id="0" precision="I64">
					<dim>5</dim>
				</port>
			</output>
		</layer>
		<layer id="34" name="/blocks.0/attn/Transpose" type="Transpose" version="opset1">
			<input>
				<port id="0" precision="FP32">
					<dim>42</dim>
					<dim>257</dim>
					<dim>3</dim>
					<dim>16</dim>
					<dim>64</dim>
				</port>
				<port id="1" precision="I64">
					<dim>5</dim>
				</port>
			</input>
			<output>
				<port id="2" precision="FP32" names="/blocks.0/attn/Transpose_output_0">
					<dim>3</dim>
					<dim>42</dim>
					<dim>16</dim>
					<dim>257</dim>
					<dim>64</dim>
				</port>
			</output>
		</layer>
		<layer id="35" name="/Constant" type="Const" version="opset1">
			<data element_type="i64" shape="" offset="8120456" size="8" />
			<output>
				<port id="0" precision="I64" names="/Constant_output_0" />
			</output>
		</layer>
		<layer id="36" name="Constant_478" type="Const" version="opset1">
			<data element_type="i64" shape="" offset="8120456" size="8" />
			<output>
				<port id="0" precision="I64" />
			</output>
		</layer>
		<layer id="37" name="/blocks.0/attn/Gather" type="Gather" version="opset8">
			<data batch_dims="0" />
			<input>
				<port id="0" precision="FP32">
					<dim>3</dim>
					<dim>42</dim>
					<dim>16</dim>
					<dim>257</dim>
					<dim>64</dim>
				</port>
				<port id="1" precision="I64" />
				<port id="2" precision="I64" />
			</input>
			<output>
				<port id="3" precision="FP32" names="/blocks.0/attn/Gather_output_0">
					<dim>42</dim>
					<dim>16</dim>
					<dim>257</dim>
					<dim>64</dim>
				</port>
			</output>
		</layer>
		<layer id="38" name="Constant_11984_compressed" type="Const" version="opset1">
			<data element_type="f16" shape="1, 1, 1, 1" offset="8120464" size="2" />
			<output>
				<port id="0" precision="FP16">
					<dim>1</dim>
					<dim>1</dim>
					<dim>1</dim>
					<dim>1</dim>
				</port>
			</output>
		</layer>
		<layer id="39" name="Constant_11984" type="Convert" version="opset1">
			<data destination_type="f32" />
			<rt_info>
				<attribute name="decompression" version="0" />
			</rt_info>
			<input>
				<port id="0" precision="FP16">
					<dim>1</dim>
					<dim>1</dim>
					<dim>1</dim>
					<dim>1</dim>
				</port>
			</input>
			<output>
				<port id="1" precision="FP32">
					<dim>1</dim>
					<dim>1</dim>
					<dim>1</dim>
					<dim>1</dim>
				</port>
			</output>
		</layer>
		<layer id="40" name="/blocks.0/attn/Mul" type="Multiply" version="opset1">
			<data auto_broadcast="numpy" />
			<input>
				<port id="0" precision="FP32">
					<dim>42</dim>
					<dim>16</dim>
					<dim>257</dim>
					<dim>64</dim>
				</port>
				<port id="1" precision="FP32">
					<dim>1</dim>
					<dim>1</dim>
					<dim>1</dim>
					<dim>1</dim>
				</port>
			</input>
			<output>
				<port id="2" precision="FP32" names="/blocks.0/attn/Mul_output_0">
					<dim>42</dim>
					<dim>16</dim>
					<dim>257</dim>
					<dim>64</dim>
				</port>
			</output>
		</layer>
		<layer id="41" name="/patch_embed/proj/Constant" type="Const" version="opset1">
			<data element_type="i64" shape="" offset="8120466" size="8" />
			<output>
				<port id="0" precision="I64" names="/patch_embed/proj/Constant_output_0" />
			</output>
		</layer>
		<layer id="42" name="Constant_482" type="Const" version="opset1">
			<data element_type="i64" shape="" offset="8120456" size="8" />
			<output>
				<port id="0" precision="I64" />
			</output>
		</layer>
		<layer id="43" name="/blocks.0/attn/Gather_1" type="Gather" version="opset8">
			<data batch_dims="0" />
			<input>
				<port id="0" precision="FP32">
					<dim>3</dim>
					<dim>42</dim>
					<dim>16</dim>
					<dim>257</dim>
					<dim>64</dim>
				</port>
				<port id="1" precision="I64" />
				<port id="2" precision="I64" />
			</input>
			<output>
				<port id="3" precision="FP32" names="/blocks.0/attn/Gather_1_output_0">
					<dim>42</dim>
					<dim>16</dim>
					<dim>257</dim>
					<dim>64</dim>
				</port>
			</output>
		</layer>
		<layer id="44" name="/patch_embed/Constant" type="Const" version="opset1">
			<data element_type="i64" shape="" offset="8120474" size="8" />
			<output>
				<port id="0" precision="I64" names="/patch_embed/Constant_output_0" />
			</output>
		</layer>
		<layer id="45" name="Constant_484" type="Const" version="opset1">
			<data element_type="i64" shape="" offset="8120456" size="8" />
			<output>
				<port id="0" precision="I64" />
			</output>
		</layer>
		<layer id="46" name="/blocks.0/attn/Gather_2" type="Gather" version="opset8">
			<data batch_dims="0" />
			<input>
				<port id="0" precision="FP32">
					<dim>3</dim>
					<dim>42</dim>
					<dim>16</dim>
					<dim>257</dim>
					<dim>64</dim>
				</port>
				<port id="1" precision="I64" />
				<port id="2" precision="I64" />
			</input>
			<output>
				<port id="3" precision="FP32" names="/blocks.0/attn/Gather_2_output_0">
					<dim>42</dim>
					<dim>16</dim>
					<dim>257</dim>
					<dim>64</dim>
				</port>
			</output>
		</layer>
		<layer id="47" name="Constant_7272_compressed" type="Const" version="opset1">
			<data element_type="f16" shape="" offset="8120482" size="2" />
			<output>
				<port id="0" precision="FP16" />
			</output>
		</layer>
		<layer id="48" name="Constant_7272" type="Convert" version="opset1">
			<data destination_type="f32" />
			<rt_info>
				<attribute name="decompression" version="0" />
			</rt_info>
			<input>
				<port id="0" precision="FP16" />
			</input>
			<output>
				<port id="1" precision="FP32" />
			</output>
		</layer>
		<layer id="49" name="Constant_7271_compressed" type="Const" version="opset1">
			<data element_type="f16" shape="" offset="8120484" size="2" />
			<output>
				<port id="0" precision="FP16" />
			</output>
		</layer>
		<layer id="50" name="Constant_7271" type="Convert" version="opset1">
			<data destination_type="f32" />
			<rt_info>
				<attribute name="decompression" version="0" />
			</rt_info>
			<input>
				<port id="0" precision="FP16" />
			</input>
			<output>
				<port id="1" precision="FP32" />
			</output>
		</layer>
		<layer id="51" name="/blocks.0/attn/MatMul_1" type="ScaledDotProductAttention" version="opset13">
			<data causal="false" />
			<input>
				<port id="0" precision="FP32">
					<dim>42</dim>
					<dim>16</dim>
					<dim>257</dim>
					<dim>64</dim>
				</port>
				<port id="1" precision="FP32">
					<dim>42</dim>
					<dim>16</dim>
					<dim>257</dim>
					<dim>64</dim>
				</port>
				<port id="2" precision="FP32">
					<dim>42</dim>
					<dim>16</dim>
					<dim>257</dim>
					<dim>64</dim>
				</port>
				<port id="3" precision="FP32" />
				<port id="4" precision="FP32" />
			</input>
			<output>
				<port id="5" precision="FP32" names="/blocks.0/attn/MatMul_1_output_0">
					<dim>42</dim>
					<dim>16</dim>
					<dim>257</dim>
					<dim>64</dim>
				</port>
			</output>
		</layer>
		<layer id="52" name="Constant_491" type="Const" version="opset1">
			<data element_type="i64" shape="4" offset="8120486" size="32" />
			<output>
				<port id="0" precision="I64">
					<dim>4</dim>
				</port>
			</output>
		</layer>
		<layer id="53" name="/blocks.0/attn/Transpose_2" type="Transpose" version="opset1">
			<input>
				<port id="0" precision="FP32">
					<dim>42</dim>
					<dim>16</dim>
					<dim>257</dim>
					<dim>64</dim>
				</port>
				<port id="1" precision="I64">
					<dim>4</dim>
				</port>
			</input>
			<output>
				<port id="2" precision="FP32" names="/blocks.0/attn/Transpose_2_output_0">
					<dim>42</dim>
					<dim>257</dim>
					<dim>16</dim>
					<dim>64</dim>
				</port>
			</output>
		</layer>
		<layer id="54" name="/blocks.0/attn/Concat_1" type="Const" version="opset1">
			<data element_type="i64" shape="3" offset="8120518" size="24" />
			<rt_info>
				<attribute name="precise" version="0" />
			</rt_info>
			<output>
				<port id="0" precision="I64" names="/blocks.0/attn/Concat_1_output_0">
					<dim>3</dim>
				</port>
			</output>
		</layer>
		<layer id="55" name="/blocks.0/attn/Reshape_1" type="Reshape" version="opset1">
			<data special_zero="true" />
			<input>
				<port id="0" precision="FP32">
					<dim>42</dim>
					<dim>257</dim>
					<dim>16</dim>
					<dim>64</dim>
				</port>
				<port id="1" precision="I64">
					<dim>3</dim>
				</port>
			</input>
			<output>
				<port id="2" precision="FP32" names="/blocks.0/attn/Reshape_1_output_0">
					<dim>42</dim>
					<dim>257</dim>
					<dim>1024</dim>
				</port>
			</output>
		</layer>
		<layer id="56" name="Transpose_7289_compressed" type="Const" version="opset1">
			<data element_type="f16" shape="1024, 1024" offset="8120542" size="2097152" />
			<output>
				<port id="0" precision="FP16">
					<dim>1024</dim>
					<dim>1024</dim>
				</port>
			</output>
		</layer>
		<layer id="57" name="Transpose_7289" type="Convert" version="opset1">
			<data destination_type="f32" />
			<rt_info>
				<attribute name="decompression" version="0" />
			</rt_info>
			<input>
				<port id="0" precision="FP16">
					<dim>1024</dim>
					<dim>1024</dim>
				</port>
			</input>
			<output>
				<port id="1" precision="FP32">
					<dim>1024</dim>
					<dim>1024</dim>
				</port>
			</output>
		</layer>
		<layer id="58" name="/blocks.0/attn/proj/MatMul" type="MatMul" version="opset1">
			<data transpose_a="false" transpose_b="true" />
			<input>
				<port id="0" precision="FP32">
					<dim>42</dim>
					<dim>257</dim>
					<dim>1024</dim>
				</port>
				<port id="1" precision="FP32">
					<dim>1024</dim>
					<dim>1024</dim>
				</port>
			</input>
			<output>
				<port id="2" precision="FP32" names="/blocks.0/attn/proj/MatMul_output_0">
					<dim>42</dim>
					<dim>257</dim>
					<dim>1024</dim>
				</port>
			</output>
		</layer>
		<layer id="59" name="Constant_11985_compressed" type="Const" version="opset1">
			<data element_type="f16" shape="1, 1, 1024" offset="10217694" size="2048" />
			<output>
				<port id="0" precision="FP16">
					<dim>1</dim>
					<dim>1</dim>
					<dim>1024</dim>
				</port>
			</output>
		</layer>
		<layer id="60" name="Constant_11985" type="Convert" version="opset1">
			<data destination_type="f32" />
			<rt_info>
				<attribute name="decompression" version="0" />
			</rt_info>
			<input>
				<port id="0" precision="FP16">
					<dim>1</dim>
					<dim>1</dim>
					<dim>1024</dim>
				</port>
			</input>
			<output>
				<port id="1" precision="FP32">
					<dim>1</dim>
					<dim>1</dim>
					<dim>1024</dim>
				</port>
			</output>
		</layer>
		<layer id="61" name="Multiply_11628" type="Multiply" version="opset1">
			<data auto_broadcast="numpy" />
			<input>
				<port id="0" precision="FP32">
					<dim>42</dim>
					<dim>257</dim>
					<dim>1024</dim>
				</port>
				<port id="1" precision="FP32">
					<dim>1</dim>
					<dim>1</dim>
					<dim>1024</dim>
				</port>
			</input>
			<output>
				<port id="2" precision="FP32">
					<dim>42</dim>
					<dim>257</dim>
					<dim>1024</dim>
				</port>
			</output>
		</layer>
		<layer id="62" name="Constant_11986_compressed" type="Const" version="opset1">
			<data element_type="f16" shape="1, 1, 1024" offset="10219742" size="2048" />
			<output>
				<port id="0" precision="FP16">
					<dim>1</dim>
					<dim>1</dim>
					<dim>1024</dim>
				</port>
			</output>
		</layer>
		<layer id="63" name="Constant_11986" type="Convert" version="opset1">
			<data destination_type="f32" />
			<rt_info>
				<attribute name="decompression" version="0" />
			</rt_info>
			<input>
				<port id="0" precision="FP16">
					<dim>1</dim>
					<dim>1</dim>
					<dim>1024</dim>
				</port>
			</input>
			<output>
				<port id="1" precision="FP32">
					<dim>1</dim>
					<dim>1</dim>
					<dim>1024</dim>
				</port>
			</output>
		</layer>
		<layer id="64" name="/blocks.0/ls1/Mul" type="Add" version="opset1">
			<data auto_broadcast="numpy" />
			<input>
				<port id="0" precision="FP32">
					<dim>42</dim>
					<dim>257</dim>
					<dim>1024</dim>
				</port>
				<port id="1" precision="FP32">
					<dim>1</dim>
					<dim>1</dim>
					<dim>1024</dim>
				</port>
			</input>
			<output>
				<port id="2" precision="FP32" names="/blocks.0/ls1/Mul_output_0">
					<dim>42</dim>
					<dim>257</dim>
					<dim>1024</dim>
				</port>
			</output>
		</layer>
		<layer id="65" name="/blocks.0/Add" type="Add" version="opset1">
			<data auto_broadcast="numpy" />
			<input>
				<port id="0" precision="FP32">
					<dim>42</dim>
					<dim>257</dim>
					<dim>1024</dim>
				</port>
				<port id="1" precision="FP32">
					<dim>42</dim>
					<dim>257</dim>
					<dim>1024</dim>
				</port>
			</input>
			<output>
				<port id="2" precision="FP32" names="/blocks.0/Add_output_0">
					<dim>42</dim>
					<dim>257</dim>
					<dim>1024</dim>
				</port>
			</output>
		</layer>
		<layer id="66" name="Constant_11989_compressed" type="Const" version="opset1">
			<data element_type="f16" shape="1, 1, 4096" offset="10221790" size="8192" />
			<output>
				<port id="0" precision="FP16">
					<dim>1</dim>
					<dim>1</dim>
					<dim>4096</dim>
				</port>
			</output>
		</layer>
		<layer id="67" name="Constant_11989" type="Convert" version="opset1">
			<data destination_type="f32" />
			<rt_info>
				<attribute name="decompression" version="0" />
			</rt_info>
			<input>
				<port id="0" precision="FP16">
					<dim>1</dim>
					<dim>1</dim>
					<dim>4096</dim>
				</port>
			</input>
			<output>
				<port id="1" precision="FP32">
					<dim>1</dim>
					<dim>1</dim>
					<dim>4096</dim>
				</port>
			</output>
		</layer>
		<layer id="68" name="Range_510" type="Const" version="opset1">
			<data element_type="i64" shape="1" offset="1824816" size="8" />
			<output>
				<port id="0" precision="I64">
					<dim>1</dim>
				</port>
			</output>
		</layer>
		<layer id="69" name="MVN_511" type="MVN" version="opset6">
			<data eps="9.9999999747524271e-07" normalize_variance="true" eps_mode="INSIDE_SQRT" />
			<input>
				<port id="0" precision="FP32">
					<dim>42</dim>
					<dim>257</dim>
					<dim>1024</dim>
				</port>
				<port id="1" precision="I64">
					<dim>1</dim>
				</port>
			</input>
			<output>
				<port id="2" precision="FP32">
					<dim>42</dim>
					<dim>257</dim>
					<dim>1024</dim>
				</port>
			</output>
		</layer>
		<layer id="70" name="Constant_11987_compressed" type="Const" version="opset1">
			<data element_type="f16" shape="1, 1, 1024" offset="10229982" size="2048" />
			<output>
				<port id="0" precision="FP16">
					<dim>1</dim>
					<dim>1</dim>
					<dim>1024</dim>
				</port>
			</output>
		</layer>
		<layer id="71" name="Constant_11987" type="Convert" version="opset1">
			<data destination_type="f32" />
			<rt_info>
				<attribute name="decompression" version="0" />
			</rt_info>
			<input>
				<port id="0" precision="FP16">
					<dim>1</dim>
					<dim>1</dim>
					<dim>1024</dim>
				</port>
			</input>
			<output>
				<port id="1" precision="FP32">
					<dim>1</dim>
					<dim>1</dim>
					<dim>1024</dim>
				</port>
			</output>
		</layer>
		<layer id="72" name="Multiply_512" type="Multiply" version="opset1">
			<data auto_broadcast="numpy" />
			<input>
				<port id="0" precision="FP32">
					<dim>42</dim>
					<dim>257</dim>
					<dim>1024</dim>
				</port>
				<port id="1" precision="FP32">
					<dim>1</dim>
					<dim>1</dim>
					<dim>1024</dim>
				</port>
			</input>
			<output>
				<port id="2" precision="FP32">
					<dim>42</dim>
					<dim>257</dim>
					<dim>1024</dim>
				</port>
			</output>
		</layer>
		<layer id="73" name="Constant_11988_compressed" type="Const" version="opset1">
			<data element_type="f16" shape="1, 1, 1024" offset="10232030" size="2048" />
			<output>
				<port id="0" precision="FP16">
					<dim>1</dim>
					<dim>1</dim>
					<dim>1024</dim>
				</port>
			</output>
		</layer>
		<layer id="74" name="Constant_11988" type="Convert" version="opset1">
			<data destination_type="f32" />
			<rt_info>
				<attribute name="decompression" version="0" />
			</rt_info>
			<input>
				<port id="0" precision="FP16">
					<dim>1</dim>
					<dim>1</dim>
					<dim>1024</dim>
				</port>
			</input>
			<output>
				<port id="1" precision="FP32">
					<dim>1</dim>
					<dim>1</dim>
					<dim>1024</dim>
				</port>
			</output>
		</layer>
		<layer id="75" name="/blocks.0/norm2/LayerNormalization" type="Add" version="opset1">
			<data auto_broadcast="numpy" />
			<input>
				<port id="0" precision="FP32">
					<dim>42</dim>
					<dim>257</dim>
					<dim>1024</dim>
				</port>
				<port id="1" precision="FP32">
					<dim>1</dim>
					<dim>1</dim>
					<dim>1024</dim>
				</port>
			</input>
			<output>
				<port id="2" precision="FP32" names="/blocks.0/norm2/LayerNormalization_output_0">
					<dim>42</dim>
					<dim>257</dim>
					<dim>1024</dim>
				</port>
			</output>
		</layer>
		<layer id="76" name="Transpose_7334_compressed" type="Const" version="opset1">
			<data element_type="f16" shape="4096, 1024" offset="10234078" size="8388608" />
			<output>
				<port id="0" precision="FP16">
					<dim>4096</dim>
					<dim>1024</dim>
				</port>
			</output>
		</layer>
		<layer id="77" name="Transpose_7334" type="Convert" version="opset1">
			<data destination_type="f32" />
			<rt_info>
				<attribute name="decompression" version="0" />
			</rt_info>
			<input>
				<port id="0" precision="FP16">
					<dim>4096</dim>
					<dim>1024</dim>
				</port>
			</input>
			<output>
				<port id="1" precision="FP32">
					<dim>4096</dim>
					<dim>1024</dim>
				</port>
			</output>
		</layer>
		<layer id="78" name="/blocks.0/mlp/fc1/MatMul" type="MatMul" version="opset1">
			<data transpose_a="false" transpose_b="true" />
			<input>
				<port id="0" precision="FP32">
					<dim>42</dim>
					<dim>257</dim>
					<dim>1024</dim>
				</port>
				<port id="1" precision="FP32">
					<dim>4096</dim>
					<dim>1024</dim>
				</port>
			</input>
			<output>
				<port id="2" precision="FP32" names="/blocks.0/mlp/fc1/MatMul_output_0">
					<dim>42</dim>
					<dim>257</dim>
					<dim>4096</dim>
				</port>
			</output>
		</layer>
		<layer id="79" name="/blocks.0/mlp/fc1/Add" type="Add" version="opset1">
			<data auto_broadcast="numpy" />
			<input>
				<port id="0" precision="FP32">
					<dim>1</dim>
					<dim>1</dim>
					<dim>4096</dim>
				</port>
				<port id="1" precision="FP32">
					<dim>42</dim>
					<dim>257</dim>
					<dim>4096</dim>
				</port>
			</input>
			<output>
				<port id="2" precision="FP32" names="/blocks.0/mlp/fc1/Add_output_0">
					<dim>42</dim>
					<dim>257</dim>
					<dim>4096</dim>
				</port>
			</output>
		</layer>
		<layer id="80" name="/blocks.0/mlp/act/Mul_1" type="Gelu" version="opset7">
			<data approximation_mode="ERF" />
			<input>
				<port id="0" precision="FP32">
					<dim>42</dim>
					<dim>257</dim>
					<dim>4096</dim>
				</port>
			</input>
			<output>
				<port id="1" precision="FP32" names="/blocks.0/mlp/act/Mul_1_output_0">
					<dim>42</dim>
					<dim>257</dim>
					<dim>4096</dim>
				</port>
			</output>
		</layer>
		<layer id="81" name="Transpose_7351_compressed" type="Const" version="opset1">
			<data element_type="f16" shape="1024, 4096" offset="18622686" size="8388608" />
			<output>
				<port id="0" precision="FP16">
					<dim>1024</dim>
					<dim>4096</dim>
				</port>
			</output>
		</layer>
		<layer id="82" name="Transpose_7351" type="Convert" version="opset1">
			<data destination_type="f32" />
			<rt_info>
				<attribute name="decompression" version="0" />
			</rt_info>
			<input>
				<port id="0" precision="FP16">
					<dim>1024</dim>
					<dim>4096</dim>
				</port>
			</input>
			<output>
				<port id="1" precision="FP32">
					<dim>1024</dim>
					<dim>4096</dim>
				</port>
			</output>
		</layer>
		<layer id="83" name="/blocks.0/mlp/fc2/MatMul" type="MatMul" version="opset1">
			<data transpose_a="false" transpose_b="true" />
			<input>
				<port id="0" precision="FP32">
					<dim>42</dim>
					<dim>257</dim>
					<dim>4096</dim>
				</port>
				<port id="1" precision="FP32">
					<dim>1024</dim>
					<dim>4096</dim>
				</port>
			</input>
			<output>
				<port id="2" precision="FP32" names="/blocks.0/mlp/fc2/MatMul_output_0">
					<dim>42</dim>
					<dim>257</dim>
					<dim>1024</dim>
				</port>
			</output>
		</layer>
		<layer id="84" name="Constant_11990_compressed" type="Const" version="opset1">
			<data element_type="f16" shape="1, 1, 1024" offset="27011294" size="2048" />
			<output>
				<port id="0" precision="FP16">
					<dim>1</dim>
					<dim>1</dim>
					<dim>1024</dim>
				</port>
			</output>
		</layer>
		<layer id="85" name="Constant_11990" type="Convert" version="opset1">
			<data destination_type="f32" />
			<rt_info>
				<attribute name="decompression" version="0" />
			</rt_info>
			<input>
				<port id="0" precision="FP16">
					<dim>1</dim>
					<dim>1</dim>
					<dim>1024</dim>
				</port>
			</input>
			<output>
				<port id="1" precision="FP32">
					<dim>1</dim>
					<dim>1</dim>
					<dim>1024</dim>
				</port>
			</output>
		</layer>
		<layer id="86" name="Multiply_11632" type="Multiply" version="opset1">
			<data auto_broadcast="numpy" />
			<input>
				<port id="0" precision="FP32">
					<dim>42</dim>
					<dim>257</dim>
					<dim>1024</dim>
				</port>
				<port id="1" precision="FP32">
					<dim>1</dim>
					<dim>1</dim>
					<dim>1024</dim>
				</port>
			</input>
			<output>
				<port id="2" precision="FP32">
					<dim>42</dim>
					<dim>257</dim>
					<dim>1024</dim>
				</port>
			</output>
		</layer>
		<layer id="87" name="Constant_11991_compressed" type="Const" version="opset1">
			<data element_type="f16" shape="1, 1, 1024" offset="27013342" size="2048" />
			<output>
				<port id="0" precision="FP16">
					<dim>1</dim>
					<dim>1</dim>
					<dim>1024</dim>
				</port>
			</output>
		</layer>
		<layer id="88" name="Constant_11991" type="Convert" version="opset1">
			<data destination_type="f32" />
			<rt_info>
				<attribute name="decompression" version="0" />
			</rt_info>
			<input>
				<port id="0" precision="FP16">
					<dim>1</dim>
					<dim>1</dim>
					<dim>1024</dim>
				</port>
			</input>
			<output>
				<port id="1" precision="FP32">
					<dim>1</dim>
					<dim>1</dim>
					<dim>1024</dim>
				</port>
			</output>
		</layer>
		<layer id="89" name="/blocks.0/ls2/Mul" type="Add" version="opset1">
			<data auto_broadcast="numpy" />
			<input>
				<port id="0" precision="FP32">
					<dim>42</dim>
					<dim>257</dim>
					<dim>1024</dim>
				</port>
				<port id="1" precision="FP32">
					<dim>1</dim>
					<dim>1</dim>
					<dim>1024</dim>
				</port>
			</input>
			<output>
				<port id="2" precision="FP32" names="/blocks.0/ls2/Mul_output_0">
					<dim>42</dim>
					<dim>257</dim>
					<dim>1024</dim>
				</port>
			</output>
		</layer>
		<layer id="90" name="/blocks.0/Add_1" type="Add" version="opset1">
			<data auto_broadcast="numpy" />
			<input>
				<port id="0" precision="FP32">
					<dim>42</dim>
					<dim>257</dim>
					<dim>1024</dim>
				</port>
				<port id="1" precision="FP32">
					<dim>42</dim>
					<dim>257</dim>
					<dim>1024</dim>
				</port>
			</input>
			<output>
				<port id="2" precision="FP32" names="/blocks.0/Add_1_output_0">
					<dim>42</dim>
					<dim>257</dim>
					<dim>1024</dim>
				</port>
			</output>
		</layer>
		<layer id="91" name="Constant_11994_compressed" type="Const" version="opset1">
			<data element_type="f16" shape="1, 1, 3072" offset="27015390" size="6144" />
			<output>
				<port id="0" precision="FP16">
					<dim>1</dim>
					<dim>1</dim>
					<dim>3072</dim>
				</port>
			</output>
		</layer>
		<layer id="92" name="Constant_11994" type="Convert" version="opset1">
			<data destination_type="f32" />
			<rt_info>
				<attribute name="decompression" version="0" />
			</rt_info>
			<input>
				<port id="0" precision="FP16">
					<dim>1</dim>
					<dim>1</dim>
					<dim>3072</dim>
				</port>
			</input>
			<output>
				<port id="1" precision="FP32">
					<dim>1</dim>
					<dim>1</dim>
					<dim>3072</dim>
				</port>
			</output>
		</layer>
		<layer id="93" name="Range_535" type="Const" version="opset1">
			<data element_type="i64" shape="1" offset="1824816" size="8" />
			<output>
				<port id="0" precision="I64">
					<dim>1</dim>
				</port>
			</output>
		</layer>
		<layer id="94" name="MVN_536" type="MVN" version="opset6">
			<data eps="9.9999999747524271e-07" normalize_variance="true" eps_mode="INSIDE_SQRT" />
			<input>
				<port id="0" precision="FP32">
					<dim>42</dim>
					<dim>257</dim>
					<dim>1024</dim>
				</port>
				<port id="1" precision="I64">
					<dim>1</dim>
				</port>
			</input>
			<output>
				<port id="2" precision="FP32">
					<dim>42</dim>
					<dim>257</dim>
					<dim>1024</dim>
				</port>
			</output>
		</layer>
		<layer id="95" name="Constant_11992_compressed" type="Const" version="opset1">
			<data element_type="f16" shape="1, 1, 1024" offset="27021534" size="2048" />
			<output>
				<port id="0" precision="FP16">
					<dim>1</dim>
					<dim>1</dim>
					<dim>1024</dim>
				</port>
			</output>
		</layer>
		<layer id="96" name="Constant_11992" type="Convert" version="opset1">
			<data destination_type="f32" />
			<rt_info>
				<attribute name="decompression" version="0" />
			</rt_info>
			<input>
				<port id="0" precision="FP16">
					<dim>1</dim>
					<dim>1</dim>
					<dim>1024</dim>
				</port>
			</input>
			<output>
				<port id="1" precision="FP32">
					<dim>1</dim>
					<dim>1</dim>
					<dim>1024</dim>
				</port>
			</output>
		</layer>
		<layer id="97" name="Multiply_537" type="Multiply" version="opset1">
			<data auto_broadcast="numpy" />
			<input>
				<port id="0" precision="FP32">
					<dim>42</dim>
					<dim>257</dim>
					<dim>1024</dim>
				</port>
				<port id="1" precision="FP32">
					<dim>1</dim>
					<dim>1</dim>
					<dim>1024</dim>
				</port>
			</input>
			<output>
				<port id="2" precision="FP32">
					<dim>42</dim>
					<dim>257</dim>
					<dim>1024</dim>
				</port>
			</output>
		</layer>
		<layer id="98" name="Constant_11993_compressed" type="Const" version="opset1">
			<data element_type="f16" shape="1, 1, 1024" offset="27023582" size="2048" />
			<output>
				<port id="0" precision="FP16">
					<dim>1</dim>
					<dim>1</dim>
					<dim>1024</dim>
				</port>
			</output>
		</layer>
		<layer id="99" name="Constant_11993" type="Convert" version="opset1">
			<data destination_type="f32" />
			<rt_info>
				<attribute name="decompression" version="0" />
			</rt_info>
			<input>
				<port id="0" precision="FP16">
					<dim>1</dim>
					<dim>1</dim>
					<dim>1024</dim>
				</port>
			</input>
			<output>
				<port id="1" precision="FP32">
					<dim>1</dim>
					<dim>1</dim>
					<dim>1024</dim>
				</port>
			</output>
		</layer>
		<layer id="100" name="/blocks.1/norm1/LayerNormalization" type="Add" version="opset1">
			<data auto_broadcast="numpy" />
			<input>
				<port id="0" precision="FP32">
					<dim>42</dim>
					<dim>257</dim>
					<dim>1024</dim>
				</port>
				<port id="1" precision="FP32">
					<dim>1</dim>
					<dim>1</dim>
					<dim>1024</dim>
				</port>
			</input>
			<output>
				<port id="2" precision="FP32" names="/blocks.1/norm1/LayerNormalization_output_0">
					<dim>42</dim>
					<dim>257</dim>
					<dim>1024</dim>
				</port>
			</output>
		</layer>
		<layer id="101" name="Transpose_7396_compressed" type="Const" version="opset1">
			<data element_type="f16" shape="3072, 1024" offset="27025630" size="6291456" />
			<output>
				<port id="0" precision="FP16">
					<dim>3072</dim>
					<dim>1024</dim>
				</port>
			</output>
		</layer>
		<layer id="102" name="Transpose_7396" type="Convert" version="opset1">
			<data destination_type="f32" />
			<rt_info>
				<attribute name="decompression" version="0" />
			</rt_info>
			<input>
				<port id="0" precision="FP16">
					<dim>3072</dim>
					<dim>1024</dim>
				</port>
			</input>
			<output>
				<port id="1" precision="FP32">
					<dim>3072</dim>
					<dim>1024</dim>
				</port>
			</output>
		</layer>
		<layer id="103" name="/blocks.1/attn/qkv/MatMul" type="MatMul" version="opset1">
			<data transpose_a="false" transpose_b="true" />
			<input>
				<port id="0" precision="FP32">
					<dim>42</dim>
					<dim>257</dim>
					<dim>1024</dim>
				</port>
				<port id="1" precision="FP32">
					<dim>3072</dim>
					<dim>1024</dim>
				</port>
			</input>
			<output>
				<port id="2" precision="FP32" names="/blocks.1/attn/qkv/MatMul_output_0">
					<dim>42</dim>
					<dim>257</dim>
					<dim>3072</dim>
				</port>
			</output>
		</layer>
		<layer id="104" name="/blocks.1/attn/qkv/Add" type="Add" version="opset1">
			<data auto_broadcast="numpy" />
			<input>
				<port id="0" precision="FP32">
					<dim>1</dim>
					<dim>1</dim>
					<dim>3072</dim>
				</port>
				<port id="1" precision="FP32">
					<dim>42</dim>
					<dim>257</dim>
					<dim>3072</dim>
				</port>
			</input>
			<output>
				<port id="2" precision="FP32" names="/blocks.1/attn/qkv/Add_output_0">
					<dim>42</dim>
					<dim>257</dim>
					<dim>3072</dim>
				</port>
			</output>
		</layer>
		<layer id="105" name="/blocks.1/attn/Concat" type="Const" version="opset1">
			<data element_type="i64" shape="5" offset="8120376" size="40" />
			<rt_info>
				<attribute name="precise" version="0" />
			</rt_info>
			<output>
				<port id="0" precision="I64" names="/blocks.1/attn/Concat_output_0">
					<dim>5</dim>
				</port>
			</output>
		</layer>
		<layer id="106" name="/blocks.1/attn/Reshape" type="Reshape" version="opset1">
			<data special_zero="true" />
			<input>
				<port id="0" precision="FP32">
					<dim>42</dim>
					<dim>257</dim>
					<dim>3072</dim>
				</port>
				<port id="1" precision="I64">
					<dim>5</dim>
				</port>
			</input>
			<output>
				<port id="2" precision="FP32" names="/blocks.1/attn/Reshape_output_0">
					<dim>42</dim>
					<dim>257</dim>
					<dim>3</dim>
					<dim>16</dim>
					<dim>64</dim>
				</port>
			</output>
		</layer>
		<layer id="107" name="Constant_559" type="Const" version="opset1">
			<data element_type="i64" shape="5" offset="8120416" size="40" />
			<output>
				<port id="0" precision="I64">
					<dim>5</dim>
				</port>
			</output>
		</layer>
		<layer id="108" name="/blocks.1/attn/Transpose" type="Transpose" version="opset1">
			<input>
				<port id="0" precision="FP32">
					<dim>42</dim>
					<dim>257</dim>
					<dim>3</dim>
					<dim>16</dim>
					<dim>64</dim>
				</port>
				<port id="1" precision="I64">
					<dim>5</dim>
				</port>
			</input>
			<output>
				<port id="2" precision="FP32" names="/blocks.1/attn/Transpose_output_0">
					<dim>3</dim>
					<dim>42</dim>
					<dim>16</dim>
					<dim>257</dim>
					<dim>64</dim>
				</port>
			</output>
		</layer>
		<layer id="109" name="Constant_561" type="Const" version="opset1">
			<data element_type="i64" shape="" offset="8120456" size="8" />
			<output>
				<port id="0" precision="I64" />
			</output>
		</layer>
		<layer id="110" name="/blocks.1/attn/Gather" type="Gather" version="opset8">
			<data batch_dims="0" />
			<input>
				<port id="0" precision="FP32">
					<dim>3</dim>
					<dim>42</dim>
					<dim>16</dim>
					<dim>257</dim>
					<dim>64</dim>
				</port>
				<port id="1" precision="I64" />
				<port id="2" precision="I64" />
			</input>
			<output>
				<port id="3" precision="FP32" names="/blocks.1/attn/Gather_output_0">
					<dim>42</dim>
					<dim>16</dim>
					<dim>257</dim>
					<dim>64</dim>
				</port>
			</output>
		</layer>
		<layer id="111" name="Constant_11995_compressed" type="Const" version="opset1">
			<data element_type="f16" shape="1, 1, 1, 1" offset="8120464" size="2" />
			<output>
				<port id="0" precision="FP16">
					<dim>1</dim>
					<dim>1</dim>
					<dim>1</dim>
					<dim>1</dim>
				</port>
			</output>
		</layer>
		<layer id="112" name="Constant_11995" type="Convert" version="opset1">
			<data destination_type="f32" />
			<rt_info>
				<attribute name="decompression" version="0" />
			</rt_info>
			<input>
				<port id="0" precision="FP16">
					<dim>1</dim>
					<dim>1</dim>
					<dim>1</dim>
					<dim>1</dim>
				</port>
			</input>
			<output>
				<port id="1" precision="FP32">
					<dim>1</dim>
					<dim>1</dim>
					<dim>1</dim>
					<dim>1</dim>
				</port>
			</output>
		</layer>
		<layer id="113" name="/blocks.1/attn/Mul" type="Multiply" version="opset1">
			<data auto_broadcast="numpy" />
			<input>
				<port id="0" precision="FP32">
					<dim>42</dim>
					<dim>16</dim>
					<dim>257</dim>
					<dim>64</dim>
				</port>
				<port id="1" precision="FP32">
					<dim>1</dim>
					<dim>1</dim>
					<dim>1</dim>
					<dim>1</dim>
				</port>
			</input>
			<output>
				<port id="2" precision="FP32" names="/blocks.1/attn/Mul_output_0">
					<dim>42</dim>
					<dim>16</dim>
					<dim>257</dim>
					<dim>64</dim>
				</port>
			</output>
		</layer>
		<layer id="114" name="Constant_565" type="Const" version="opset1">
			<data element_type="i64" shape="" offset="8120456" size="8" />
			<output>
				<port id="0" precision="I64" />
			</output>
		</layer>
		<layer id="115" name="/blocks.1/attn/Gather_1" type="Gather" version="opset8">
			<data batch_dims="0" />
			<input>
				<port id="0" precision="FP32">
					<dim>3</dim>
					<dim>42</dim>
					<dim>16</dim>
					<dim>257</dim>
					<dim>64</dim>
				</port>
				<port id="1" precision="I64" />
				<port id="2" precision="I64" />
			</input>
			<output>
				<port id="3" precision="FP32" names="/blocks.1/attn/Gather_1_output_0">
					<dim>42</dim>
					<dim>16</dim>
					<dim>257</dim>
					<dim>64</dim>
				</port>
			</output>
		</layer>
		<layer id="116" name="Constant_567" type="Const" version="opset1">
			<data element_type="i64" shape="" offset="8120456" size="8" />
			<output>
				<port id="0" precision="I64" />
			</output>
		</layer>
		<layer id="117" name="/blocks.1/attn/Gather_2" type="Gather" version="opset8">
			<data batch_dims="0" />
			<input>
				<port id="0" precision="FP32">
					<dim>3</dim>
					<dim>42</dim>
					<dim>16</dim>
					<dim>257</dim>
					<dim>64</dim>
				</port>
				<port id="1" precision="I64" />
				<port id="2" precision="I64" />
			</input>
			<output>
				<port id="3" precision="FP32" names="/blocks.1/attn/Gather_2_output_0">
					<dim>42</dim>
					<dim>16</dim>
					<dim>257</dim>
					<dim>64</dim>
				</port>
			</output>
		</layer>
		<layer id="118" name="Constant_7455_compressed" type="Const" version="opset1">
			<data element_type="f16" shape="" offset="8120482" size="2" />
			<output>
				<port id="0" precision="FP16" />
			</output>
		</layer>
		<layer id="119" name="Constant_7455" type="Convert" version="opset1">
			<data destination_type="f32" />
			<rt_info>
				<attribute name="decompression" version="0" />
			</rt_info>
			<input>
				<port id="0" precision="FP16" />
			</input>
			<output>
				<port id="1" precision="FP32" />
			</output>
		</layer>
		<layer id="120" name="Constant_7454_compressed" type="Const" version="opset1">
			<data element_type="f16" shape="" offset="8120484" size="2" />
			<output>
				<port id="0" precision="FP16" />
			</output>
		</layer>
		<layer id="121" name="Constant_7454" type="Convert" version="opset1">
			<data destination_type="f32" />
			<rt_info>
				<attribute name="decompression" version="0" />
			</rt_info>
			<input>
				<port id="0" precision="FP16" />
			</input>
			<output>
				<port id="1" precision="FP32" />
			</output>
		</layer>
		<layer id="122" name="/blocks.1/attn/MatMul_1" type="ScaledDotProductAttention" version="opset13">
			<data causal="false" />
			<input>
				<port id="0" precision="FP32">
					<dim>42</dim>
					<dim>16</dim>
					<dim>257</dim>
					<dim>64</dim>
				</port>
				<port id="1" precision="FP32">
					<dim>42</dim>
					<dim>16</dim>
					<dim>257</dim>
					<dim>64</dim>
				</port>
				<port id="2" precision="FP32">
					<dim>42</dim>
					<dim>16</dim>
					<dim>257</dim>
					<dim>64</dim>
				</port>
				<port id="3" precision="FP32" />
				<port id="4" precision="FP32" />
			</input>
			<output>
				<port id="5" precision="FP32" names="/blocks.1/attn/MatMul_1_output_0">
					<dim>42</dim>
					<dim>16</dim>
					<dim>257</dim>
					<dim>64</dim>
				</port>
			</output>
		</layer>
		<layer id="123" name="Constant_574" type="Const" version="opset1">
			<data element_type="i64" shape="4" offset="8120486" size="32" />
			<output>
				<port id="0" precision="I64">
					<dim>4</dim>
				</port>
			</output>
		</layer>
		<layer id="124" name="/blocks.1/attn/Transpose_2" type="Transpose" version="opset1">
			<input>
				<port id="0" precision="FP32">
					<dim>42</dim>
					<dim>16</dim>
					<dim>257</dim>
					<dim>64</dim>
				</port>
				<port id="1" precision="I64">
					<dim>4</dim>
				</port>
			</input>
			<output>
				<port id="2" precision="FP32" names="/blocks.1/attn/Transpose_2_output_0">
					<dim>42</dim>
					<dim>257</dim>
					<dim>16</dim>
					<dim>64</dim>
				</port>
			</output>
		</layer>
		<layer id="125" name="/blocks.1/attn/Concat_1" type="Const" version="opset1">
			<data element_type="i64" shape="3" offset="8120518" size="24" />
			<rt_info>
				<attribute name="precise" version="0" />
			</rt_info>
			<output>
				<port id="0" precision="I64" names="/blocks.1/attn/Concat_1_output_0">
					<dim>3</dim>
				</port>
			</output>
		</layer>
		<layer id="126" name="/blocks.1/attn/Reshape_1" type="Reshape" version="opset1">
			<data special_zero="true" />
			<input>
				<port id="0" precision="FP32">
					<dim>42</dim>
					<dim>257</dim>
					<dim>16</dim>
					<dim>64</dim>
				</port>
				<port id="1" precision="I64">
					<dim>3</dim>
				</port>
			</input>
			<output>
				<port id="2" precision="FP32" names="/blocks.1/attn/Reshape_1_output_0">
					<dim>42</dim>
					<dim>257</dim>
					<dim>1024</dim>
				</port>
			</output>
		</layer>
		<layer id="127" name="Transpose_7472_compressed" type="Const" version="opset1">
			<data element_type="f16" shape="1024, 1024" offset="33317086" size="2097152" />
			<output>
				<port id="0" precision="FP16">
					<dim>1024</dim>
					<dim>1024</dim>
				</port>
			</output>
		</layer>
		<layer id="128" name="Transpose_7472" type="Convert" version="opset1">
			<data destination_type="f32" />
			<rt_info>
				<attribute name="decompression" version="0" />
			</rt_info>
			<input>
				<port id="0" precision="FP16">
					<dim>1024</dim>
					<dim>1024</dim>
				</port>
			</input>
			<output>
				<port id="1" precision="FP32">
					<dim>1024</dim>
					<dim>1024</dim>
				</port>
			</output>
		</layer>
		<layer id="129" name="/blocks.1/attn/proj/MatMul" type="MatMul" version="opset1">
			<data transpose_a="false" transpose_b="true" />
			<input>
				<port id="0" precision="FP32">
					<dim>42</dim>
					<dim>257</dim>
					<dim>1024</dim>
				</port>
				<port id="1" precision="FP32">
					<dim>1024</dim>
					<dim>1024</dim>
				</port>
			</input>
			<output>
				<port id="2" precision="FP32" names="/blocks.1/attn/proj/MatMul_output_0">
					<dim>42</dim>
					<dim>257</dim>
					<dim>1024</dim>
				</port>
			</output>
		</layer>
		<layer id="130" name="Constant_11996_compressed" type="Const" version="opset1">
			<data element_type="f16" shape="1, 1, 1024" offset="35414238" size="2048" />
			<output>
				<port id="0" precision="FP16">
					<dim>1</dim>
					<dim>1</dim>
					<dim>1024</dim>
				</port>
			</output>
		</layer>
		<layer id="131" name="Constant_11996" type="Convert" version="opset1">
			<data destination_type="f32" />
			<rt_info>
				<attribute name="decompression" version="0" />
			</rt_info>
			<input>
				<port id="0" precision="FP16">
					<dim>1</dim>
					<dim>1</dim>
					<dim>1024</dim>
				</port>
			</input>
			<output>
				<port id="1" precision="FP32">
					<dim>1</dim>
					<dim>1</dim>
					<dim>1024</dim>
				</port>
			</output>
		</layer>
		<layer id="132" name="Multiply_11636" type="Multiply" version="opset1">
			<data auto_broadcast="numpy" />
			<input>
				<port id="0" precision="FP32">
					<dim>42</dim>
					<dim>257</dim>
					<dim>1024</dim>
				</port>
				<port id="1" precision="FP32">
					<dim>1</dim>
					<dim>1</dim>
					<dim>1024</dim>
				</port>
			</input>
			<output>
				<port id="2" precision="FP32">
					<dim>42</dim>
					<dim>257</dim>
					<dim>1024</dim>
				</port>
			</output>
		</layer>
		<layer id="133" name="Constant_11997_compressed" type="Const" version="opset1">
			<data element_type="f16" shape="1, 1, 1024" offset="35416286" size="2048" />
			<output>
				<port id="0" precision="FP16">
					<dim>1</dim>
					<dim>1</dim>
					<dim>1024</dim>
				</port>
			</output>
		</layer>
		<layer id="134" name="Constant_11997" type="Convert" version="opset1">
			<data destination_type="f32" />
			<rt_info>
				<attribute name="decompression" version="0" />
			</rt_info>
			<input>
				<port id="0" precision="FP16">
					<dim>1</dim>
					<dim>1</dim>
					<dim>1024</dim>
				</port>
			</input>
			<output>
				<port id="1" precision="FP32">
					<dim>1</dim>
					<dim>1</dim>
					<dim>1024</dim>
				</port>
			</output>
		</layer>
		<layer id="135" name="/blocks.1/ls1/Mul" type="Add" version="opset1">
			<data auto_broadcast="numpy" />
			<input>
				<port id="0" precision="FP32">
					<dim>42</dim>
					<dim>257</dim>
					<dim>1024</dim>
				</port>
				<port id="1" precision="FP32">
					<dim>1</dim>
					<dim>1</dim>
					<dim>1024</dim>
				</port>
			</input>
			<output>
				<port id="2" precision="FP32" names="/blocks.1/ls1/Mul_output_0">
					<dim>42</dim>
					<dim>257</dim>
					<dim>1024</dim>
				</port>
			</output>
		</layer>
		<layer id="136" name="/blocks.1/Add" type="Add" version="opset1">
			<data auto_broadcast="numpy" />
			<input>
				<port id="0" precision="FP32">
					<dim>42</dim>
					<dim>257</dim>
					<dim>1024</dim>
				</port>
				<port id="1" precision="FP32">
					<dim>42</dim>
					<dim>257</dim>
					<dim>1024</dim>
				</port>
			</input>
			<output>
				<port id="2" precision="FP32" names="/blocks.1/Add_output_0">
					<dim>42</dim>
					<dim>257</dim>
					<dim>1024</dim>
				</port>
			</output>
		</layer>
		<layer id="137" name="Constant_12000_compressed" type="Const" version="opset1">
			<data element_type="f16" shape="1, 1, 4096" offset="35418334" size="8192" />
			<output>
				<port id="0" precision="FP16">
					<dim>1</dim>
					<dim>1</dim>
					<dim>4096</dim>
				</port>
			</output>
		</layer>
		<layer id="138" name="Constant_12000" type="Convert" version="opset1">
			<data destination_type="f32" />
			<rt_info>
				<attribute name="decompression" version="0" />
			</rt_info>
			<input>
				<port id="0" precision="FP16">
					<dim>1</dim>
					<dim>1</dim>
					<dim>4096</dim>
				</port>
			</input>
			<output>
				<port id="1" precision="FP32">
					<dim>1</dim>
					<dim>1</dim>
					<dim>4096</dim>
				</port>
			</output>
		</layer>
		<layer id="139" name="Range_593" type="Const" version="opset1">
			<data element_type="i64" shape="1" offset="1824816" size="8" />
			<output>
				<port id="0" precision="I64">
					<dim>1</dim>
				</port>
			</output>
		</layer>
		<layer id="140" name="MVN_594" type="MVN" version="opset6">
			<data eps="9.9999999747524271e-07" normalize_variance="true" eps_mode="INSIDE_SQRT" />
			<input>
				<port id="0" precision="FP32">
					<dim>42</dim>
					<dim>257</dim>
					<dim>1024</dim>
				</port>
				<port id="1" precision="I64">
					<dim>1</dim>
				</port>
			</input>
			<output>
				<port id="2" precision="FP32">
					<dim>42</dim>
					<dim>257</dim>
					<dim>1024</dim>
				</port>
			</output>
		</layer>
		<layer id="141" name="Constant_11998_compressed" type="Const" version="opset1">
			<data element_type="f16" shape="1, 1, 1024" offset="35426526" size="2048" />
			<output>
				<port id="0" precision="FP16">
					<dim>1</dim>
					<dim>1</dim>
					<dim>1024</dim>
				</port>
			</output>
		</layer>
		<layer id="142" name="Constant_11998" type="Convert" version="opset1">
			<data destination_type="f32" />
			<rt_info>
				<attribute name="decompression" version="0" />
			</rt_info>
			<input>
				<port id="0" precision="FP16">
					<dim>1</dim>
					<dim>1</dim>
					<dim>1024</dim>
				</port>
			</input>
			<output>
				<port id="1" precision="FP32">
					<dim>1</dim>
					<dim>1</dim>
					<dim>1024</dim>
				</port>
			</output>
		</layer>
		<layer id="143" name="Multiply_595" type="Multiply" version="opset1">
			<data auto_broadcast="numpy" />
			<input>
				<port id="0" precision="FP32">
					<dim>42</dim>
					<dim>257</dim>
					<dim>1024</dim>
				</port>
				<port id="1" precision="FP32">
					<dim>1</dim>
					<dim>1</dim>
					<dim>1024</dim>
				</port>
			</input>
			<output>
				<port id="2" precision="FP32">
					<dim>42</dim>
					<dim>257</dim>
					<dim>1024</dim>
				</port>
			</output>
		</layer>
		<layer id="144" name="Constant_11999_compressed" type="Const" version="opset1">
			<data element_type="f16" shape="1, 1, 1024" offset="35428574" size="2048" />
			<output>
				<port id="0" precision="FP16">
					<dim>1</dim>
					<dim>1</dim>
					<dim>1024</dim>
				</port>
			</output>
		</layer>
		<layer id="145" name="Constant_11999" type="Convert" version="opset1">
			<data destination_type="f32" />
			<rt_info>
				<attribute name="decompression" version="0" />
			</rt_info>
			<input>
				<port id="0" precision="FP16">
					<dim>1</dim>
					<dim>1</dim>
					<dim>1024</dim>
				</port>
			</input>
			<output>
				<port id="1" precision="FP32">
					<dim>1</dim>
					<dim>1</dim>
					<dim>1024</dim>
				</port>
			</output>
		</layer>
		<layer id="146" name="/blocks.1/norm2/LayerNormalization" type="Add" version="opset1">
			<data auto_broadcast="numpy" />
			<input>
				<port id="0" precision="FP32">
					<dim>42</dim>
					<dim>257</dim>
					<dim>1024</dim>
				</port>
				<port id="1" precision="FP32">
					<dim>1</dim>
					<dim>1</dim>
					<dim>1024</dim>
				</port>
			</input>
			<output>
				<port id="2" precision="FP32" names="/blocks.1/norm2/LayerNormalization_output_0">
					<dim>42</dim>
					<dim>257</dim>
					<dim>1024</dim>
				</port>
			</output>
		</layer>
		<layer id="147" name="Transpose_7517_compressed" type="Const" version="opset1">
			<data element_type="f16" shape="4096, 1024" offset="35430622" size="8388608" />
			<output>
				<port id="0" precision="FP16">
					<dim>4096</dim>
					<dim>1024</dim>
				</port>
			</output>
		</layer>
		<layer id="148" name="Transpose_7517" type="Convert" version="opset1">
			<data destination_type="f32" />
			<rt_info>
				<attribute name="decompression" version="0" />
			</rt_info>
			<input>
				<port id="0" precision="FP16">
					<dim>4096</dim>
					<dim>1024</dim>
				</port>
			</input>
			<output>
				<port id="1" precision="FP32">
					<dim>4096</dim>
					<dim>1024</dim>
				</port>
			</output>
		</layer>
		<layer id="149" name="/blocks.1/mlp/fc1/MatMul" type="MatMul" version="opset1">
			<data transpose_a="false" transpose_b="true" />
			<input>
				<port id="0" precision="FP32">
					<dim>42</dim>
					<dim>257</dim>
					<dim>1024</dim>
				</port>
				<port id="1" precision="FP32">
					<dim>4096</dim>
					<dim>1024</dim>
				</port>
			</input>
			<output>
				<port id="2" precision="FP32" names="/blocks.1/mlp/fc1/MatMul_output_0">
					<dim>42</dim>
					<dim>257</dim>
					<dim>4096</dim>
				</port>
			</output>
		</layer>
		<layer id="150" name="/blocks.1/mlp/fc1/Add" type="Add" version="opset1">
			<data auto_broadcast="numpy" />
			<input>
				<port id="0" precision="FP32">
					<dim>1</dim>
					<dim>1</dim>
					<dim>4096</dim>
				</port>
				<port id="1" precision="FP32">
					<dim>42</dim>
					<dim>257</dim>
					<dim>4096</dim>
				</port>
			</input>
			<output>
				<port id="2" precision="FP32" names="/blocks.1/mlp/fc1/Add_output_0">
					<dim>42</dim>
					<dim>257</dim>
					<dim>4096</dim>
				</port>
			</output>
		</layer>
		<layer id="151" name="/blocks.1/mlp/act/Mul_1" type="Gelu" version="opset7">
			<data approximation_mode="ERF" />
			<input>
				<port id="0" precision="FP32">
					<dim>42</dim>
					<dim>257</dim>
					<dim>4096</dim>
				</port>
			</input>
			<output>
				<port id="1" precision="FP32" names="/blocks.1/mlp/act/Mul_1_output_0">
					<dim>42</dim>
					<dim>257</dim>
					<dim>4096</dim>
				</port>
			</output>
		</layer>
		<layer id="152" name="Transpose_7534_compressed" type="Const" version="opset1">
			<data element_type="f16" shape="1024, 4096" offset="43819230" size="8388608" />
			<output>
				<port id="0" precision="FP16">
					<dim>1024</dim>
					<dim>4096</dim>
				</port>
			</output>
		</layer>
		<layer id="153" name="Transpose_7534" type="Convert" version="opset1">
			<data destination_type="f32" />
			<rt_info>
				<attribute name="decompression" version="0" />
			</rt_info>
			<input>
				<port id="0" precision="FP16">
					<dim>1024</dim>
					<dim>4096</dim>
				</port>
			</input>
			<output>
				<port id="1" precision="FP32">
					<dim>1024</dim>
					<dim>4096</dim>
				</port>
			</output>
		</layer>
		<layer id="154" name="/blocks.1/mlp/fc2/MatMul" type="MatMul" version="opset1">
			<data transpose_a="false" transpose_b="true" />
			<input>
				<port id="0" precision="FP32">
					<dim>42</dim>
					<dim>257</dim>
					<dim>4096</dim>
				</port>
				<port id="1" precision="FP32">
					<dim>1024</dim>
					<dim>4096</dim>
				</port>
			</input>
			<output>
				<port id="2" precision="FP32" names="/blocks.1/mlp/fc2/MatMul_output_0">
					<dim>42</dim>
					<dim>257</dim>
					<dim>1024</dim>
				</port>
			</output>
		</layer>
		<layer id="155" name="Constant_12001_compressed" type="Const" version="opset1">
			<data element_type="f16" shape="1, 1, 1024" offset="52207838" size="2048" />
			<output>
				<port id="0" precision="FP16">
					<dim>1</dim>
					<dim>1</dim>
					<dim>1024</dim>
				</port>
			</output>
		</layer>
		<layer id="156" name="Constant_12001" type="Convert" version="opset1">
			<data destination_type="f32" />
			<rt_info>
				<attribute name="decompression" version="0" />
			</rt_info>
			<input>
				<port id="0" precision="FP16">
					<dim>1</dim>
					<dim>1</dim>
					<dim>1024</dim>
				</port>
			</input>
			<output>
				<port id="1" precision="FP32">
					<dim>1</dim>
					<dim>1</dim>
					<dim>1024</dim>
				</port>
			</output>
		</layer>
		<layer id="157" name="Multiply_11640" type="Multiply" version="opset1">
			<data auto_broadcast="numpy" />
			<input>
				<port id="0" precision="FP32">
					<dim>42</dim>
					<dim>257</dim>
					<dim>1024</dim>
				</port>
				<port id="1" precision="FP32">
					<dim>1</dim>
					<dim>1</dim>
					<dim>1024</dim>
				</port>
			</input>
			<output>
				<port id="2" precision="FP32">
					<dim>42</dim>
					<dim>257</dim>
					<dim>1024</dim>
				</port>
			</output>
		</layer>
		<layer id="158" name="Constant_12002_compressed" type="Const" version="opset1">
			<data element_type="f16" shape="1, 1, 1024" offset="52209886" size="2048" />
			<output>
				<port id="0" precision="FP16">
					<dim>1</dim>
					<dim>1</dim>
					<dim>1024</dim>
				</port>
			</output>
		</layer>
		<layer id="159" name="Constant_12002" type="Convert" version="opset1">
			<data destination_type="f32" />
			<rt_info>
				<attribute name="decompression" version="0" />
			</rt_info>
			<input>
				<port id="0" precision="FP16">
					<dim>1</dim>
					<dim>1</dim>
					<dim>1024</dim>
				</port>
			</input>
			<output>
				<port id="1" precision="FP32">
					<dim>1</dim>
					<dim>1</dim>
					<dim>1024</dim>
				</port>
			</output>
		</layer>
		<layer id="160" name="/blocks.1/ls2/Mul" type="Add" version="opset1">
			<data auto_broadcast="numpy" />
			<input>
				<port id="0" precision="FP32">
					<dim>42</dim>
					<dim>257</dim>
					<dim>1024</dim>
				</port>
				<port id="1" precision="FP32">
					<dim>1</dim>
					<dim>1</dim>
					<dim>1024</dim>
				</port>
			</input>
			<output>
				<port id="2" precision="FP32" names="/blocks.1/ls2/Mul_output_0">
					<dim>42</dim>
					<dim>257</dim>
					<dim>1024</dim>
				</port>
			</output>
		</layer>
		<layer id="161" name="/blocks.1/Add_1" type="Add" version="opset1">
			<data auto_broadcast="numpy" />
			<input>
				<port id="0" precision="FP32">
					<dim>42</dim>
					<dim>257</dim>
					<dim>1024</dim>
				</port>
				<port id="1" precision="FP32">
					<dim>42</dim>
					<dim>257</dim>
					<dim>1024</dim>
				</port>
			</input>
			<output>
				<port id="2" precision="FP32" names="/blocks.1/Add_1_output_0">
					<dim>42</dim>
					<dim>257</dim>
					<dim>1024</dim>
				</port>
			</output>
		</layer>
		<layer id="162" name="Constant_12005_compressed" type="Const" version="opset1">
			<data element_type="f16" shape="1, 1, 3072" offset="52211934" size="6144" />
			<output>
				<port id="0" precision="FP16">
					<dim>1</dim>
					<dim>1</dim>
					<dim>3072</dim>
				</port>
			</output>
		</layer>
		<layer id="163" name="Constant_12005" type="Convert" version="opset1">
			<data destination_type="f32" />
			<rt_info>
				<attribute name="decompression" version="0" />
			</rt_info>
			<input>
				<port id="0" precision="FP16">
					<dim>1</dim>
					<dim>1</dim>
					<dim>3072</dim>
				</port>
			</input>
			<output>
				<port id="1" precision="FP32">
					<dim>1</dim>
					<dim>1</dim>
					<dim>3072</dim>
				</port>
			</output>
		</layer>
		<layer id="164" name="Range_618" type="Const" version="opset1">
			<data element_type="i64" shape="1" offset="1824816" size="8" />
			<output>
				<port id="0" precision="I64">
					<dim>1</dim>
				</port>
			</output>
		</layer>
		<layer id="165" name="MVN_619" type="MVN" version="opset6">
			<data eps="9.9999999747524271e-07" normalize_variance="true" eps_mode="INSIDE_SQRT" />
			<input>
				<port id="0" precision="FP32">
					<dim>42</dim>
					<dim>257</dim>
					<dim>1024</dim>
				</port>
				<port id="1" precision="I64">
					<dim>1</dim>
				</port>
			</input>
			<output>
				<port id="2" precision="FP32">
					<dim>42</dim>
					<dim>257</dim>
					<dim>1024</dim>
				</port>
			</output>
		</layer>
		<layer id="166" name="Constant_12003_compressed" type="Const" version="opset1">
			<data element_type="f16" shape="1, 1, 1024" offset="52218078" size="2048" />
			<output>
				<port id="0" precision="FP16">
					<dim>1</dim>
					<dim>1</dim>
					<dim>1024</dim>
				</port>
			</output>
		</layer>
		<layer id="167" name="Constant_12003" type="Convert" version="opset1">
			<data destination_type="f32" />
			<rt_info>
				<attribute name="decompression" version="0" />
			</rt_info>
			<input>
				<port id="0" precision="FP16">
					<dim>1</dim>
					<dim>1</dim>
					<dim>1024</dim>
				</port>
			</input>
			<output>
				<port id="1" precision="FP32">
					<dim>1</dim>
					<dim>1</dim>
					<dim>1024</dim>
				</port>
			</output>
		</layer>
		<layer id="168" name="Multiply_620" type="Multiply" version="opset1">
			<data auto_broadcast="numpy" />
			<input>
				<port id="0" precision="FP32">
					<dim>42</dim>
					<dim>257</dim>
					<dim>1024</dim>
				</port>
				<port id="1" precision="FP32">
					<dim>1</dim>
					<dim>1</dim>
					<dim>1024</dim>
				</port>
			</input>
			<output>
				<port id="2" precision="FP32">
					<dim>42</dim>
					<dim>257</dim>
					<dim>1024</dim>
				</port>
			</output>
		</layer>
		<layer id="169" name="Constant_12004_compressed" type="Const" version="opset1">
			<data element_type="f16" shape="1, 1, 1024" offset="52220126" size="2048" />
			<output>
				<port id="0" precision="FP16">
					<dim>1</dim>
					<dim>1</dim>
					<dim>1024</dim>
				</port>
			</output>
		</layer>
		<layer id="170" name="Constant_12004" type="Convert" version="opset1">
			<data destination_type="f32" />
			<rt_info>
				<attribute name="decompression" version="0" />
			</rt_info>
			<input>
				<port id="0" precision="FP16">
					<dim>1</dim>
					<dim>1</dim>
					<dim>1024</dim>
				</port>
			</input>
			<output>
				<port id="1" precision="FP32">
					<dim>1</dim>
					<dim>1</dim>
					<dim>1024</dim>
				</port>
			</output>
		</layer>
		<layer id="171" name="/blocks.2/norm1/LayerNormalization" type="Add" version="opset1">
			<data auto_broadcast="numpy" />
			<input>
				<port id="0" precision="FP32">
					<dim>42</dim>
					<dim>257</dim>
					<dim>1024</dim>
				</port>
				<port id="1" precision="FP32">
					<dim>1</dim>
					<dim>1</dim>
					<dim>1024</dim>
				</port>
			</input>
			<output>
				<port id="2" precision="FP32" names="/blocks.2/norm1/LayerNormalization_output_0">
					<dim>42</dim>
					<dim>257</dim>
					<dim>1024</dim>
				</port>
			</output>
		</layer>
		<layer id="172" name="Transpose_7579_compressed" type="Const" version="opset1">
			<data element_type="f16" shape="3072, 1024" offset="52222174" size="6291456" />
			<output>
				<port id="0" precision="FP16">
					<dim>3072</dim>
					<dim>1024</dim>
				</port>
			</output>
		</layer>
		<layer id="173" name="Transpose_7579" type="Convert" version="opset1">
			<data destination_type="f32" />
			<rt_info>
				<attribute name="decompression" version="0" />
			</rt_info>
			<input>
				<port id="0" precision="FP16">
					<dim>3072</dim>
					<dim>1024</dim>
				</port>
			</input>
			<output>
				<port id="1" precision="FP32">
					<dim>3072</dim>
					<dim>1024</dim>
				</port>
			</output>
		</layer>
		<layer id="174" name="/blocks.2/attn/qkv/MatMul" type="MatMul" version="opset1">
			<data transpose_a="false" transpose_b="true" />
			<input>
				<port id="0" precision="FP32">
					<dim>42</dim>
					<dim>257</dim>
					<dim>1024</dim>
				</port>
				<port id="1" precision="FP32">
					<dim>3072</dim>
					<dim>1024</dim>
				</port>
			</input>
			<output>
				<port id="2" precision="FP32" names="/blocks.2/attn/qkv/MatMul_output_0">
					<dim>42</dim>
					<dim>257</dim>
					<dim>3072</dim>
				</port>
			</output>
		</layer>
		<layer id="175" name="/blocks.2/attn/qkv/Add" type="Add" version="opset1">
			<data auto_broadcast="numpy" />
			<input>
				<port id="0" precision="FP32">
					<dim>1</dim>
					<dim>1</dim>
					<dim>3072</dim>
				</port>
				<port id="1" precision="FP32">
					<dim>42</dim>
					<dim>257</dim>
					<dim>3072</dim>
				</port>
			</input>
			<output>
				<port id="2" precision="FP32" names="/blocks.2/attn/qkv/Add_output_0">
					<dim>42</dim>
					<dim>257</dim>
					<dim>3072</dim>
				</port>
			</output>
		</layer>
		<layer id="176" name="/blocks.2/attn/Concat" type="Const" version="opset1">
			<data element_type="i64" shape="5" offset="8120376" size="40" />
			<rt_info>
				<attribute name="precise" version="0" />
			</rt_info>
			<output>
				<port id="0" precision="I64" names="/blocks.2/attn/Concat_output_0">
					<dim>5</dim>
				</port>
			</output>
		</layer>
		<layer id="177" name="/blocks.2/attn/Reshape" type="Reshape" version="opset1">
			<data special_zero="true" />
			<input>
				<port id="0" precision="FP32">
					<dim>42</dim>
					<dim>257</dim>
					<dim>3072</dim>
				</port>
				<port id="1" precision="I64">
					<dim>5</dim>
				</port>
			</input>
			<output>
				<port id="2" precision="FP32" names="/blocks.2/attn/Reshape_output_0">
					<dim>42</dim>
					<dim>257</dim>
					<dim>3</dim>
					<dim>16</dim>
					<dim>64</dim>
				</port>
			</output>
		</layer>
		<layer id="178" name="Constant_642" type="Const" version="opset1">
			<data element_type="i64" shape="5" offset="8120416" size="40" />
			<output>
				<port id="0" precision="I64">
					<dim>5</dim>
				</port>
			</output>
		</layer>
		<layer id="179" name="/blocks.2/attn/Transpose" type="Transpose" version="opset1">
			<input>
				<port id="0" precision="FP32">
					<dim>42</dim>
					<dim>257</dim>
					<dim>3</dim>
					<dim>16</dim>
					<dim>64</dim>
				</port>
				<port id="1" precision="I64">
					<dim>5</dim>
				</port>
			</input>
			<output>
				<port id="2" precision="FP32" names="/blocks.2/attn/Transpose_output_0">
					<dim>3</dim>
					<dim>42</dim>
					<dim>16</dim>
					<dim>257</dim>
					<dim>64</dim>
				</port>
			</output>
		</layer>
		<layer id="180" name="Constant_644" type="Const" version="opset1">
			<data element_type="i64" shape="" offset="8120456" size="8" />
			<output>
				<port id="0" precision="I64" />
			</output>
		</layer>
		<layer id="181" name="/blocks.2/attn/Gather" type="Gather" version="opset8">
			<data batch_dims="0" />
			<input>
				<port id="0" precision="FP32">
					<dim>3</dim>
					<dim>42</dim>
					<dim>16</dim>
					<dim>257</dim>
					<dim>64</dim>
				</port>
				<port id="1" precision="I64" />
				<port id="2" precision="I64" />
			</input>
			<output>
				<port id="3" precision="FP32" names="/blocks.2/attn/Gather_output_0">
					<dim>42</dim>
					<dim>16</dim>
					<dim>257</dim>
					<dim>64</dim>
				</port>
			</output>
		</layer>
		<layer id="182" name="Constant_12006_compressed" type="Const" version="opset1">
			<data element_type="f16" shape="1, 1, 1, 1" offset="8120464" size="2" />
			<output>
				<port id="0" precision="FP16">
					<dim>1</dim>
					<dim>1</dim>
					<dim>1</dim>
					<dim>1</dim>
				</port>
			</output>
		</layer>
		<layer id="183" name="Constant_12006" type="Convert" version="opset1">
			<data destination_type="f32" />
			<rt_info>
				<attribute name="decompression" version="0" />
			</rt_info>
			<input>
				<port id="0" precision="FP16">
					<dim>1</dim>
					<dim>1</dim>
					<dim>1</dim>
					<dim>1</dim>
				</port>
			</input>
			<output>
				<port id="1" precision="FP32">
					<dim>1</dim>
					<dim>1</dim>
					<dim>1</dim>
					<dim>1</dim>
				</port>
			</output>
		</layer>
		<layer id="184" name="/blocks.2/attn/Mul" type="Multiply" version="opset1">
			<data auto_broadcast="numpy" />
			<input>
				<port id="0" precision="FP32">
					<dim>42</dim>
					<dim>16</dim>
					<dim>257</dim>
					<dim>64</dim>
				</port>
				<port id="1" precision="FP32">
					<dim>1</dim>
					<dim>1</dim>
					<dim>1</dim>
					<dim>1</dim>
				</port>
			</input>
			<output>
				<port id="2" precision="FP32" names="/blocks.2/attn/Mul_output_0">
					<dim>42</dim>
					<dim>16</dim>
					<dim>257</dim>
					<dim>64</dim>
				</port>
			</output>
		</layer>
		<layer id="185" name="Constant_648" type="Const" version="opset1">
			<data element_type="i64" shape="" offset="8120456" size="8" />
			<output>
				<port id="0" precision="I64" />
			</output>
		</layer>
		<layer id="186" name="/blocks.2/attn/Gather_1" type="Gather" version="opset8">
			<data batch_dims="0" />
			<input>
				<port id="0" precision="FP32">
					<dim>3</dim>
					<dim>42</dim>
					<dim>16</dim>
					<dim>257</dim>
					<dim>64</dim>
				</port>
				<port id="1" precision="I64" />
				<port id="2" precision="I64" />
			</input>
			<output>
				<port id="3" precision="FP32" names="/blocks.2/attn/Gather_1_output_0">
					<dim>42</dim>
					<dim>16</dim>
					<dim>257</dim>
					<dim>64</dim>
				</port>
			</output>
		</layer>
		<layer id="187" name="Constant_650" type="Const" version="opset1">
			<data element_type="i64" shape="" offset="8120456" size="8" />
			<output>
				<port id="0" precision="I64" />
			</output>
		</layer>
		<layer id="188" name="/blocks.2/attn/Gather_2" type="Gather" version="opset8">
			<data batch_dims="0" />
			<input>
				<port id="0" precision="FP32">
					<dim>3</dim>
					<dim>42</dim>
					<dim>16</dim>
					<dim>257</dim>
					<dim>64</dim>
				</port>
				<port id="1" precision="I64" />
				<port id="2" precision="I64" />
			</input>
			<output>
				<port id="3" precision="FP32" names="/blocks.2/attn/Gather_2_output_0">
					<dim>42</dim>
					<dim>16</dim>
					<dim>257</dim>
					<dim>64</dim>
				</port>
			</output>
		</layer>
		<layer id="189" name="Constant_7638_compressed" type="Const" version="opset1">
			<data element_type="f16" shape="" offset="8120482" size="2" />
			<output>
				<port id="0" precision="FP16" />
			</output>
		</layer>
		<layer id="190" name="Constant_7638" type="Convert" version="opset1">
			<data destination_type="f32" />
			<rt_info>
				<attribute name="decompression" version="0" />
			</rt_info>
			<input>
				<port id="0" precision="FP16" />
			</input>
			<output>
				<port id="1" precision="FP32" />
			</output>
		</layer>
		<layer id="191" name="Constant_7637_compressed" type="Const" version="opset1">
			<data element_type="f16" shape="" offset="8120484" size="2" />
			<output>
				<port id="0" precision="FP16" />
			</output>
		</layer>
		<layer id="192" name="Constant_7637" type="Convert" version="opset1">
			<data destination_type="f32" />
			<rt_info>
				<attribute name="decompression" version="0" />
			</rt_info>
			<input>
				<port id="0" precision="FP16" />
			</input>
			<output>
				<port id="1" precision="FP32" />
			</output>
		</layer>
		<layer id="193" name="/blocks.2/attn/MatMul_1" type="ScaledDotProductAttention" version="opset13">
			<data causal="false" />
			<input>
				<port id="0" precision="FP32">
					<dim>42</dim>
					<dim>16</dim>
					<dim>257</dim>
					<dim>64</dim>
				</port>
				<port id="1" precision="FP32">
					<dim>42</dim>
					<dim>16</dim>
					<dim>257</dim>
					<dim>64</dim>
				</port>
				<port id="2" precision="FP32">
					<dim>42</dim>
					<dim>16</dim>
					<dim>257</dim>
					<dim>64</dim>
				</port>
				<port id="3" precision="FP32" />
				<port id="4" precision="FP32" />
			</input>
			<output>
				<port id="5" precision="FP32" names="/blocks.2/attn/MatMul_1_output_0">
					<dim>42</dim>
					<dim>16</dim>
					<dim>257</dim>
					<dim>64</dim>
				</port>
			</output>
		</layer>
		<layer id="194" name="Constant_657" type="Const" version="opset1">
			<data element_type="i64" shape="4" offset="8120486" size="32" />
			<output>
				<port id="0" precision="I64">
					<dim>4</dim>
				</port>
			</output>
		</layer>
		<layer id="195" name="/blocks.2/attn/Transpose_2" type="Transpose" version="opset1">
			<input>
				<port id="0" precision="FP32">
					<dim>42</dim>
					<dim>16</dim>
					<dim>257</dim>
					<dim>64</dim>
				</port>
				<port id="1" precision="I64">
					<dim>4</dim>
				</port>
			</input>
			<output>
				<port id="2" precision="FP32" names="/blocks.2/attn/Transpose_2_output_0">
					<dim>42</dim>
					<dim>257</dim>
					<dim>16</dim>
					<dim>64</dim>
				</port>
			</output>
		</layer>
		<layer id="196" name="/blocks.2/attn/Concat_1" type="Const" version="opset1">
			<data element_type="i64" shape="3" offset="8120518" size="24" />
			<rt_info>
				<attribute name="precise" version="0" />
			</rt_info>
			<output>
				<port id="0" precision="I64" names="/blocks.2/attn/Concat_1_output_0">
					<dim>3</dim>
				</port>
			</output>
		</layer>
		<layer id="197" name="/blocks.2/attn/Reshape_1" type="Reshape" version="opset1">
			<data special_zero="true" />
			<input>
				<port id="0" precision="FP32">
					<dim>42</dim>
					<dim>257</dim>
					<dim>16</dim>
					<dim>64</dim>
				</port>
				<port id="1" precision="I64">
					<dim>3</dim>
				</port>
			</input>
			<output>
				<port id="2" precision="FP32" names="/blocks.2/attn/Reshape_1_output_0">
					<dim>42</dim>
					<dim>257</dim>
					<dim>1024</dim>
				</port>
			</output>
		</layer>
		<layer id="198" name="Transpose_7655_compressed" type="Const" version="opset1">
			<data element_type="f16" shape="1024, 1024" offset="58513630" size="2097152" />
			<output>
				<port id="0" precision="FP16">
					<dim>1024</dim>
					<dim>1024</dim>
				</port>
			</output>
		</layer>
		<layer id="199" name="Transpose_7655" type="Convert" version="opset1">
			<data destination_type="f32" />
			<rt_info>
				<attribute name="decompression" version="0" />
			</rt_info>
			<input>
				<port id="0" precision="FP16">
					<dim>1024</dim>
					<dim>1024</dim>
				</port>
			</input>
			<output>
				<port id="1" precision="FP32">
					<dim>1024</dim>
					<dim>1024</dim>
				</port>
			</output>
		</layer>
		<layer id="200" name="/blocks.2/attn/proj/MatMul" type="MatMul" version="opset1">
			<data transpose_a="false" transpose_b="true" />
			<input>
				<port id="0" precision="FP32">
					<dim>42</dim>
					<dim>257</dim>
					<dim>1024</dim>
				</port>
				<port id="1" precision="FP32">
					<dim>1024</dim>
					<dim>1024</dim>
				</port>
			</input>
			<output>
				<port id="2" precision="FP32" names="/blocks.2/attn/proj/MatMul_output_0">
					<dim>42</dim>
					<dim>257</dim>
					<dim>1024</dim>
				</port>
			</output>
		</layer>
		<layer id="201" name="Constant_12007_compressed" type="Const" version="opset1">
			<data element_type="f16" shape="1, 1, 1024" offset="60610782" size="2048" />
			<output>
				<port id="0" precision="FP16">
					<dim>1</dim>
					<dim>1</dim>
					<dim>1024</dim>
				</port>
			</output>
		</layer>
		<layer id="202" name="Constant_12007" type="Convert" version="opset1">
			<data destination_type="f32" />
			<rt_info>
				<attribute name="decompression" version="0" />
			</rt_info>
			<input>
				<port id="0" precision="FP16">
					<dim>1</dim>
					<dim>1</dim>
					<dim>1024</dim>
				</port>
			</input>
			<output>
				<port id="1" precision="FP32">
					<dim>1</dim>
					<dim>1</dim>
					<dim>1024</dim>
				</port>
			</output>
		</layer>
		<layer id="203" name="Multiply_11644" type="Multiply" version="opset1">
			<data auto_broadcast="numpy" />
			<input>
				<port id="0" precision="FP32">
					<dim>42</dim>
					<dim>257</dim>
					<dim>1024</dim>
				</port>
				<port id="1" precision="FP32">
					<dim>1</dim>
					<dim>1</dim>
					<dim>1024</dim>
				</port>
			</input>
			<output>
				<port id="2" precision="FP32">
					<dim>42</dim>
					<dim>257</dim>
					<dim>1024</dim>
				</port>
			</output>
		</layer>
		<layer id="204" name="Constant_12008_compressed" type="Const" version="opset1">
			<data element_type="f16" shape="1, 1, 1024" offset="60612830" size="2048" />
			<output>
				<port id="0" precision="FP16">
					<dim>1</dim>
					<dim>1</dim>
					<dim>1024</dim>
				</port>
			</output>
		</layer>
		<layer id="205" name="Constant_12008" type="Convert" version="opset1">
			<data destination_type="f32" />
			<rt_info>
				<attribute name="decompression" version="0" />
			</rt_info>
			<input>
				<port id="0" precision="FP16">
					<dim>1</dim>
					<dim>1</dim>
					<dim>1024</dim>
				</port>
			</input>
			<output>
				<port id="1" precision="FP32">
					<dim>1</dim>
					<dim>1</dim>
					<dim>1024</dim>
				</port>
			</output>
		</layer>
		<layer id="206" name="/blocks.2/ls1/Mul" type="Add" version="opset1">
			<data auto_broadcast="numpy" />
			<input>
				<port id="0" precision="FP32">
					<dim>42</dim>
					<dim>257</dim>
					<dim>1024</dim>
				</port>
				<port id="1" precision="FP32">
					<dim>1</dim>
					<dim>1</dim>
					<dim>1024</dim>
				</port>
			</input>
			<output>
				<port id="2" precision="FP32" names="/blocks.2/ls1/Mul_output_0">
					<dim>42</dim>
					<dim>257</dim>
					<dim>1024</dim>
				</port>
			</output>
		</layer>
		<layer id="207" name="/blocks.2/Add" type="Add" version="opset1">
			<data auto_broadcast="numpy" />
			<input>
				<port id="0" precision="FP32">
					<dim>42</dim>
					<dim>257</dim>
					<dim>1024</dim>
				</port>
				<port id="1" precision="FP32">
					<dim>42</dim>
					<dim>257</dim>
					<dim>1024</dim>
				</port>
			</input>
			<output>
				<port id="2" precision="FP32" names="/blocks.2/Add_output_0">
					<dim>42</dim>
					<dim>257</dim>
					<dim>1024</dim>
				</port>
			</output>
		</layer>
		<layer id="208" name="Constant_12011_compressed" type="Const" version="opset1">
			<data element_type="f16" shape="1, 1, 4096" offset="60614878" size="8192" />
			<output>
				<port id="0" precision="FP16">
					<dim>1</dim>
					<dim>1</dim>
					<dim>4096</dim>
				</port>
			</output>
		</layer>
		<layer id="209" name="Constant_12011" type="Convert" version="opset1">
			<data destination_type="f32" />
			<rt_info>
				<attribute name="decompression" version="0" />
			</rt_info>
			<input>
				<port id="0" precision="FP16">
					<dim>1</dim>
					<dim>1</dim>
					<dim>4096</dim>
				</port>
			</input>
			<output>
				<port id="1" precision="FP32">
					<dim>1</dim>
					<dim>1</dim>
					<dim>4096</dim>
				</port>
			</output>
		</layer>
		<layer id="210" name="Range_676" type="Const" version="opset1">
			<data element_type="i64" shape="1" offset="1824816" size="8" />
			<output>
				<port id="0" precision="I64">
					<dim>1</dim>
				</port>
			</output>
		</layer>
		<layer id="211" name="MVN_677" type="MVN" version="opset6">
			<data eps="9.9999999747524271e-07" normalize_variance="true" eps_mode="INSIDE_SQRT" />
			<input>
				<port id="0" precision="FP32">
					<dim>42</dim>
					<dim>257</dim>
					<dim>1024</dim>
				</port>
				<port id="1" precision="I64">
					<dim>1</dim>
				</port>
			</input>
			<output>
				<port id="2" precision="FP32">
					<dim>42</dim>
					<dim>257</dim>
					<dim>1024</dim>
				</port>
			</output>
		</layer>
		<layer id="212" name="Constant_12009_compressed" type="Const" version="opset1">
			<data element_type="f16" shape="1, 1, 1024" offset="60623070" size="2048" />
			<output>
				<port id="0" precision="FP16">
					<dim>1</dim>
					<dim>1</dim>
					<dim>1024</dim>
				</port>
			</output>
		</layer>
		<layer id="213" name="Constant_12009" type="Convert" version="opset1">
			<data destination_type="f32" />
			<rt_info>
				<attribute name="decompression" version="0" />
			</rt_info>
			<input>
				<port id="0" precision="FP16">
					<dim>1</dim>
					<dim>1</dim>
					<dim>1024</dim>
				</port>
			</input>
			<output>
				<port id="1" precision="FP32">
					<dim>1</dim>
					<dim>1</dim>
					<dim>1024</dim>
				</port>
			</output>
		</layer>
		<layer id="214" name="Multiply_678" type="Multiply" version="opset1">
			<data auto_broadcast="numpy" />
			<input>
				<port id="0" precision="FP32">
					<dim>42</dim>
					<dim>257</dim>
					<dim>1024</dim>
				</port>
				<port id="1" precision="FP32">
					<dim>1</dim>
					<dim>1</dim>
					<dim>1024</dim>
				</port>
			</input>
			<output>
				<port id="2" precision="FP32">
					<dim>42</dim>
					<dim>257</dim>
					<dim>1024</dim>
				</port>
			</output>
		</layer>
		<layer id="215" name="Constant_12010_compressed" type="Const" version="opset1">
			<data element_type="f16" shape="1, 1, 1024" offset="60625118" size="2048" />
			<output>
				<port id="0" precision="FP16">
					<dim>1</dim>
					<dim>1</dim>
					<dim>1024</dim>
				</port>
			</output>
		</layer>
		<layer id="216" name="Constant_12010" type="Convert" version="opset1">
			<data destination_type="f32" />
			<rt_info>
				<attribute name="decompression" version="0" />
			</rt_info>
			<input>
				<port id="0" precision="FP16">
					<dim>1</dim>
					<dim>1</dim>
					<dim>1024</dim>
				</port>
			</input>
			<output>
				<port id="1" precision="FP32">
					<dim>1</dim>
					<dim>1</dim>
					<dim>1024</dim>
				</port>
			</output>
		</layer>
		<layer id="217" name="/blocks.2/norm2/LayerNormalization" type="Add" version="opset1">
			<data auto_broadcast="numpy" />
			<input>
				<port id="0" precision="FP32">
					<dim>42</dim>
					<dim>257</dim>
					<dim>1024</dim>
				</port>
				<port id="1" precision="FP32">
					<dim>1</dim>
					<dim>1</dim>
					<dim>1024</dim>
				</port>
			</input>
			<output>
				<port id="2" precision="FP32" names="/blocks.2/norm2/LayerNormalization_output_0">
					<dim>42</dim>
					<dim>257</dim>
					<dim>1024</dim>
				</port>
			</output>
		</layer>
		<layer id="218" name="Transpose_7700_compressed" type="Const" version="opset1">
			<data element_type="f16" shape="4096, 1024" offset="60627166" size="8388608" />
			<output>
				<port id="0" precision="FP16">
					<dim>4096</dim>
					<dim>1024</dim>
				</port>
			</output>
		</layer>
		<layer id="219" name="Transpose_7700" type="Convert" version="opset1">
			<data destination_type="f32" />
			<rt_info>
				<attribute name="decompression" version="0" />
			</rt_info>
			<input>
				<port id="0" precision="FP16">
					<dim>4096</dim>
					<dim>1024</dim>
				</port>
			</input>
			<output>
				<port id="1" precision="FP32">
					<dim>4096</dim>
					<dim>1024</dim>
				</port>
			</output>
		</layer>
		<layer id="220" name="/blocks.2/mlp/fc1/MatMul" type="MatMul" version="opset1">
			<data transpose_a="false" transpose_b="true" />
			<input>
				<port id="0" precision="FP32">
					<dim>42</dim>
					<dim>257</dim>
					<dim>1024</dim>
				</port>
				<port id="1" precision="FP32">
					<dim>4096</dim>
					<dim>1024</dim>
				</port>
			</input>
			<output>
				<port id="2" precision="FP32" names="/blocks.2/mlp/fc1/MatMul_output_0">
					<dim>42</dim>
					<dim>257</dim>
					<dim>4096</dim>
				</port>
			</output>
		</layer>
		<layer id="221" name="/blocks.2/mlp/fc1/Add" type="Add" version="opset1">
			<data auto_broadcast="numpy" />
			<input>
				<port id="0" precision="FP32">
					<dim>1</dim>
					<dim>1</dim>
					<dim>4096</dim>
				</port>
				<port id="1" precision="FP32">
					<dim>42</dim>
					<dim>257</dim>
					<dim>4096</dim>
				</port>
			</input>
			<output>
				<port id="2" precision="FP32" names="/blocks.2/mlp/fc1/Add_output_0">
					<dim>42</dim>
					<dim>257</dim>
					<dim>4096</dim>
				</port>
			</output>
		</layer>
		<layer id="222" name="/blocks.2/mlp/act/Mul_1" type="Gelu" version="opset7">
			<data approximation_mode="ERF" />
			<input>
				<port id="0" precision="FP32">
					<dim>42</dim>
					<dim>257</dim>
					<dim>4096</dim>
				</port>
			</input>
			<output>
				<port id="1" precision="FP32" names="/blocks.2/mlp/act/Mul_1_output_0">
					<dim>42</dim>
					<dim>257</dim>
					<dim>4096</dim>
				</port>
			</output>
		</layer>
		<layer id="223" name="Transpose_7717_compressed" type="Const" version="opset1">
			<data element_type="f16" shape="1024, 4096" offset="69015774" size="8388608" />
			<output>
				<port id="0" precision="FP16">
					<dim>1024</dim>
					<dim>4096</dim>
				</port>
			</output>
		</layer>
		<layer id="224" name="Transpose_7717" type="Convert" version="opset1">
			<data destination_type="f32" />
			<rt_info>
				<attribute name="decompression" version="0" />
			</rt_info>
			<input>
				<port id="0" precision="FP16">
					<dim>1024</dim>
					<dim>4096</dim>
				</port>
			</input>
			<output>
				<port id="1" precision="FP32">
					<dim>1024</dim>
					<dim>4096</dim>
				</port>
			</output>
		</layer>
		<layer id="225" name="/blocks.2/mlp/fc2/MatMul" type="MatMul" version="opset1">
			<data transpose_a="false" transpose_b="true" />
			<input>
				<port id="0" precision="FP32">
					<dim>42</dim>
					<dim>257</dim>
					<dim>4096</dim>
				</port>
				<port id="1" precision="FP32">
					<dim>1024</dim>
					<dim>4096</dim>
				</port>
			</input>
			<output>
				<port id="2" precision="FP32" names="/blocks.2/mlp/fc2/MatMul_output_0">
					<dim>42</dim>
					<dim>257</dim>
					<dim>1024</dim>
				</port>
			</output>
		</layer>
		<layer id="226" name="Constant_12012_compressed" type="Const" version="opset1">
			<data element_type="f16" shape="1, 1, 1024" offset="77404382" size="2048" />
			<output>
				<port id="0" precision="FP16">
					<dim>1</dim>
					<dim>1</dim>
					<dim>1024</dim>
				</port>
			</output>
		</layer>
		<layer id="227" name="Constant_12012" type="Convert" version="opset1">
			<data destination_type="f32" />
			<rt_info>
				<attribute name="decompression" version="0" />
			</rt_info>
			<input>
				<port id="0" precision="FP16">
					<dim>1</dim>
					<dim>1</dim>
					<dim>1024</dim>
				</port>
			</input>
			<output>
				<port id="1" precision="FP32">
					<dim>1</dim>
					<dim>1</dim>
					<dim>1024</dim>
				</port>
			</output>
		</layer>
		<layer id="228" name="Multiply_11648" type="Multiply" version="opset1">
			<data auto_broadcast="numpy" />
			<input>
				<port id="0" precision="FP32">
					<dim>42</dim>
					<dim>257</dim>
					<dim>1024</dim>
				</port>
				<port id="1" precision="FP32">
					<dim>1</dim>
					<dim>1</dim>
					<dim>1024</dim>
				</port>
			</input>
			<output>
				<port id="2" precision="FP32">
					<dim>42</dim>
					<dim>257</dim>
					<dim>1024</dim>
				</port>
			</output>
		</layer>
		<layer id="229" name="Constant_12013_compressed" type="Const" version="opset1">
			<data element_type="f16" shape="1, 1, 1024" offset="77406430" size="2048" />
			<output>
				<port id="0" precision="FP16">
					<dim>1</dim>
					<dim>1</dim>
					<dim>1024</dim>
				</port>
			</output>
		</layer>
		<layer id="230" name="Constant_12013" type="Convert" version="opset1">
			<data destination_type="f32" />
			<rt_info>
				<attribute name="decompression" version="0" />
			</rt_info>
			<input>
				<port id="0" precision="FP16">
					<dim>1</dim>
					<dim>1</dim>
					<dim>1024</dim>
				</port>
			</input>
			<output>
				<port id="1" precision="FP32">
					<dim>1</dim>
					<dim>1</dim>
					<dim>1024</dim>
				</port>
			</output>
		</layer>
		<layer id="231" name="/blocks.2/ls2/Mul" type="Add" version="opset1">
			<data auto_broadcast="numpy" />
			<input>
				<port id="0" precision="FP32">
					<dim>42</dim>
					<dim>257</dim>
					<dim>1024</dim>
				</port>
				<port id="1" precision="FP32">
					<dim>1</dim>
					<dim>1</dim>
					<dim>1024</dim>
				</port>
			</input>
			<output>
				<port id="2" precision="FP32" names="/blocks.2/ls2/Mul_output_0">
					<dim>42</dim>
					<dim>257</dim>
					<dim>1024</dim>
				</port>
			</output>
		</layer>
		<layer id="232" name="/blocks.2/Add_1" type="Add" version="opset1">
			<data auto_broadcast="numpy" />
			<input>
				<port id="0" precision="FP32">
					<dim>42</dim>
					<dim>257</dim>
					<dim>1024</dim>
				</port>
				<port id="1" precision="FP32">
					<dim>42</dim>
					<dim>257</dim>
					<dim>1024</dim>
				</port>
			</input>
			<output>
				<port id="2" precision="FP32" names="/blocks.2/Add_1_output_0">
					<dim>42</dim>
					<dim>257</dim>
					<dim>1024</dim>
				</port>
			</output>
		</layer>
		<layer id="233" name="Constant_12016_compressed" type="Const" version="opset1">
			<data element_type="f16" shape="1, 1, 3072" offset="77408478" size="6144" />
			<output>
				<port id="0" precision="FP16">
					<dim>1</dim>
					<dim>1</dim>
					<dim>3072</dim>
				</port>
			</output>
		</layer>
		<layer id="234" name="Constant_12016" type="Convert" version="opset1">
			<data destination_type="f32" />
			<rt_info>
				<attribute name="decompression" version="0" />
			</rt_info>
			<input>
				<port id="0" precision="FP16">
					<dim>1</dim>
					<dim>1</dim>
					<dim>3072</dim>
				</port>
			</input>
			<output>
				<port id="1" precision="FP32">
					<dim>1</dim>
					<dim>1</dim>
					<dim>3072</dim>
				</port>
			</output>
		</layer>
		<layer id="235" name="Range_701" type="Const" version="opset1">
			<data element_type="i64" shape="1" offset="1824816" size="8" />
			<output>
				<port id="0" precision="I64">
					<dim>1</dim>
				</port>
			</output>
		</layer>
		<layer id="236" name="MVN_702" type="MVN" version="opset6">
			<data eps="9.9999999747524271e-07" normalize_variance="true" eps_mode="INSIDE_SQRT" />
			<input>
				<port id="0" precision="FP32">
					<dim>42</dim>
					<dim>257</dim>
					<dim>1024</dim>
				</port>
				<port id="1" precision="I64">
					<dim>1</dim>
				</port>
			</input>
			<output>
				<port id="2" precision="FP32">
					<dim>42</dim>
					<dim>257</dim>
					<dim>1024</dim>
				</port>
			</output>
		</layer>
		<layer id="237" name="Constant_12014_compressed" type="Const" version="opset1">
			<data element_type="f16" shape="1, 1, 1024" offset="77414622" size="2048" />
			<output>
				<port id="0" precision="FP16">
					<dim>1</dim>
					<dim>1</dim>
					<dim>1024</dim>
				</port>
			</output>
		</layer>
		<layer id="238" name="Constant_12014" type="Convert" version="opset1">
			<data destination_type="f32" />
			<rt_info>
				<attribute name="decompression" version="0" />
			</rt_info>
			<input>
				<port id="0" precision="FP16">
					<dim>1</dim>
					<dim>1</dim>
					<dim>1024</dim>
				</port>
			</input>
			<output>
				<port id="1" precision="FP32">
					<dim>1</dim>
					<dim>1</dim>
					<dim>1024</dim>
				</port>
			</output>
		</layer>
		<layer id="239" name="Multiply_703" type="Multiply" version="opset1">
			<data auto_broadcast="numpy" />
			<input>
				<port id="0" precision="FP32">
					<dim>42</dim>
					<dim>257</dim>
					<dim>1024</dim>
				</port>
				<port id="1" precision="FP32">
					<dim>1</dim>
					<dim>1</dim>
					<dim>1024</dim>
				</port>
			</input>
			<output>
				<port id="2" precision="FP32">
					<dim>42</dim>
					<dim>257</dim>
					<dim>1024</dim>
				</port>
			</output>
		</layer>
		<layer id="240" name="Constant_12015_compressed" type="Const" version="opset1">
			<data element_type="f16" shape="1, 1, 1024" offset="77416670" size="2048" />
			<output>
				<port id="0" precision="FP16">
					<dim>1</dim>
					<dim>1</dim>
					<dim>1024</dim>
				</port>
			</output>
		</layer>
		<layer id="241" name="Constant_12015" type="Convert" version="opset1">
			<data destination_type="f32" />
			<rt_info>
				<attribute name="decompression" version="0" />
			</rt_info>
			<input>
				<port id="0" precision="FP16">
					<dim>1</dim>
					<dim>1</dim>
					<dim>1024</dim>
				</port>
			</input>
			<output>
				<port id="1" precision="FP32">
					<dim>1</dim>
					<dim>1</dim>
					<dim>1024</dim>
				</port>
			</output>
		</layer>
		<layer id="242" name="/blocks.3/norm1/LayerNormalization" type="Add" version="opset1">
			<data auto_broadcast="numpy" />
			<input>
				<port id="0" precision="FP32">
					<dim>42</dim>
					<dim>257</dim>
					<dim>1024</dim>
				</port>
				<port id="1" precision="FP32">
					<dim>1</dim>
					<dim>1</dim>
					<dim>1024</dim>
				</port>
			</input>
			<output>
				<port id="2" precision="FP32" names="/blocks.3/norm1/LayerNormalization_output_0">
					<dim>42</dim>
					<dim>257</dim>
					<dim>1024</dim>
				</port>
			</output>
		</layer>
		<layer id="243" name="Transpose_7762_compressed" type="Const" version="opset1">
			<data element_type="f16" shape="3072, 1024" offset="77418718" size="6291456" />
			<output>
				<port id="0" precision="FP16">
					<dim>3072</dim>
					<dim>1024</dim>
				</port>
			</output>
		</layer>
		<layer id="244" name="Transpose_7762" type="Convert" version="opset1">
			<data destination_type="f32" />
			<rt_info>
				<attribute name="decompression" version="0" />
			</rt_info>
			<input>
				<port id="0" precision="FP16">
					<dim>3072</dim>
					<dim>1024</dim>
				</port>
			</input>
			<output>
				<port id="1" precision="FP32">
					<dim>3072</dim>
					<dim>1024</dim>
				</port>
			</output>
		</layer>
		<layer id="245" name="/blocks.3/attn/qkv/MatMul" type="MatMul" version="opset1">
			<data transpose_a="false" transpose_b="true" />
			<input>
				<port id="0" precision="FP32">
					<dim>42</dim>
					<dim>257</dim>
					<dim>1024</dim>
				</port>
				<port id="1" precision="FP32">
					<dim>3072</dim>
					<dim>1024</dim>
				</port>
			</input>
			<output>
				<port id="2" precision="FP32" names="/blocks.3/attn/qkv/MatMul_output_0">
					<dim>42</dim>
					<dim>257</dim>
					<dim>3072</dim>
				</port>
			</output>
		</layer>
		<layer id="246" name="/blocks.3/attn/qkv/Add" type="Add" version="opset1">
			<data auto_broadcast="numpy" />
			<input>
				<port id="0" precision="FP32">
					<dim>1</dim>
					<dim>1</dim>
					<dim>3072</dim>
				</port>
				<port id="1" precision="FP32">
					<dim>42</dim>
					<dim>257</dim>
					<dim>3072</dim>
				</port>
			</input>
			<output>
				<port id="2" precision="FP32" names="/blocks.3/attn/qkv/Add_output_0">
					<dim>42</dim>
					<dim>257</dim>
					<dim>3072</dim>
				</port>
			</output>
		</layer>
		<layer id="247" name="/blocks.3/attn/Concat" type="Const" version="opset1">
			<data element_type="i64" shape="5" offset="8120376" size="40" />
			<rt_info>
				<attribute name="precise" version="0" />
			</rt_info>
			<output>
				<port id="0" precision="I64" names="/blocks.3/attn/Concat_output_0">
					<dim>5</dim>
				</port>
			</output>
		</layer>
		<layer id="248" name="/blocks.3/attn/Reshape" type="Reshape" version="opset1">
			<data special_zero="true" />
			<input>
				<port id="0" precision="FP32">
					<dim>42</dim>
					<dim>257</dim>
					<dim>3072</dim>
				</port>
				<port id="1" precision="I64">
					<dim>5</dim>
				</port>
			</input>
			<output>
				<port id="2" precision="FP32" names="/blocks.3/attn/Reshape_output_0">
					<dim>42</dim>
					<dim>257</dim>
					<dim>3</dim>
					<dim>16</dim>
					<dim>64</dim>
				</port>
			</output>
		</layer>
		<layer id="249" name="Constant_725" type="Const" version="opset1">
			<data element_type="i64" shape="5" offset="8120416" size="40" />
			<output>
				<port id="0" precision="I64">
					<dim>5</dim>
				</port>
			</output>
		</layer>
		<layer id="250" name="/blocks.3/attn/Transpose" type="Transpose" version="opset1">
			<input>
				<port id="0" precision="FP32">
					<dim>42</dim>
					<dim>257</dim>
					<dim>3</dim>
					<dim>16</dim>
					<dim>64</dim>
				</port>
				<port id="1" precision="I64">
					<dim>5</dim>
				</port>
			</input>
			<output>
				<port id="2" precision="FP32" names="/blocks.3/attn/Transpose_output_0">
					<dim>3</dim>
					<dim>42</dim>
					<dim>16</dim>
					<dim>257</dim>
					<dim>64</dim>
				</port>
			</output>
		</layer>
		<layer id="251" name="Constant_727" type="Const" version="opset1">
			<data element_type="i64" shape="" offset="8120456" size="8" />
			<output>
				<port id="0" precision="I64" />
			</output>
		</layer>
		<layer id="252" name="/blocks.3/attn/Gather" type="Gather" version="opset8">
			<data batch_dims="0" />
			<input>
				<port id="0" precision="FP32">
					<dim>3</dim>
					<dim>42</dim>
					<dim>16</dim>
					<dim>257</dim>
					<dim>64</dim>
				</port>
				<port id="1" precision="I64" />
				<port id="2" precision="I64" />
			</input>
			<output>
				<port id="3" precision="FP32" names="/blocks.3/attn/Gather_output_0">
					<dim>42</dim>
					<dim>16</dim>
					<dim>257</dim>
					<dim>64</dim>
				</port>
			</output>
		</layer>
		<layer id="253" name="Constant_12017_compressed" type="Const" version="opset1">
			<data element_type="f16" shape="1, 1, 1, 1" offset="8120464" size="2" />
			<output>
				<port id="0" precision="FP16">
					<dim>1</dim>
					<dim>1</dim>
					<dim>1</dim>
					<dim>1</dim>
				</port>
			</output>
		</layer>
		<layer id="254" name="Constant_12017" type="Convert" version="opset1">
			<data destination_type="f32" />
			<rt_info>
				<attribute name="decompression" version="0" />
			</rt_info>
			<input>
				<port id="0" precision="FP16">
					<dim>1</dim>
					<dim>1</dim>
					<dim>1</dim>
					<dim>1</dim>
				</port>
			</input>
			<output>
				<port id="1" precision="FP32">
					<dim>1</dim>
					<dim>1</dim>
					<dim>1</dim>
					<dim>1</dim>
				</port>
			</output>
		</layer>
		<layer id="255" name="/blocks.3/attn/Mul" type="Multiply" version="opset1">
			<data auto_broadcast="numpy" />
			<input>
				<port id="0" precision="FP32">
					<dim>42</dim>
					<dim>16</dim>
					<dim>257</dim>
					<dim>64</dim>
				</port>
				<port id="1" precision="FP32">
					<dim>1</dim>
					<dim>1</dim>
					<dim>1</dim>
					<dim>1</dim>
				</port>
			</input>
			<output>
				<port id="2" precision="FP32" names="/blocks.3/attn/Mul_output_0">
					<dim>42</dim>
					<dim>16</dim>
					<dim>257</dim>
					<dim>64</dim>
				</port>
			</output>
		</layer>
		<layer id="256" name="Constant_731" type="Const" version="opset1">
			<data element_type="i64" shape="" offset="8120456" size="8" />
			<output>
				<port id="0" precision="I64" />
			</output>
		</layer>
		<layer id="257" name="/blocks.3/attn/Gather_1" type="Gather" version="opset8">
			<data batch_dims="0" />
			<input>
				<port id="0" precision="FP32">
					<dim>3</dim>
					<dim>42</dim>
					<dim>16</dim>
					<dim>257</dim>
					<dim>64</dim>
				</port>
				<port id="1" precision="I64" />
				<port id="2" precision="I64" />
			</input>
			<output>
				<port id="3" precision="FP32" names="/blocks.3/attn/Gather_1_output_0">
					<dim>42</dim>
					<dim>16</dim>
					<dim>257</dim>
					<dim>64</dim>
				</port>
			</output>
		</layer>
		<layer id="258" name="Constant_733" type="Const" version="opset1">
			<data element_type="i64" shape="" offset="8120456" size="8" />
			<output>
				<port id="0" precision="I64" />
			</output>
		</layer>
		<layer id="259" name="/blocks.3/attn/Gather_2" type="Gather" version="opset8">
			<data batch_dims="0" />
			<input>
				<port id="0" precision="FP32">
					<dim>3</dim>
					<dim>42</dim>
					<dim>16</dim>
					<dim>257</dim>
					<dim>64</dim>
				</port>
				<port id="1" precision="I64" />
				<port id="2" precision="I64" />
			</input>
			<output>
				<port id="3" precision="FP32" names="/blocks.3/attn/Gather_2_output_0">
					<dim>42</dim>
					<dim>16</dim>
					<dim>257</dim>
					<dim>64</dim>
				</port>
			</output>
		</layer>
		<layer id="260" name="Constant_7821_compressed" type="Const" version="opset1">
			<data element_type="f16" shape="" offset="8120482" size="2" />
			<output>
				<port id="0" precision="FP16" />
			</output>
		</layer>
		<layer id="261" name="Constant_7821" type="Convert" version="opset1">
			<data destination_type="f32" />
			<rt_info>
				<attribute name="decompression" version="0" />
			</rt_info>
			<input>
				<port id="0" precision="FP16" />
			</input>
			<output>
				<port id="1" precision="FP32" />
			</output>
		</layer>
		<layer id="262" name="Constant_7820_compressed" type="Const" version="opset1">
			<data element_type="f16" shape="" offset="8120484" size="2" />
			<output>
				<port id="0" precision="FP16" />
			</output>
		</layer>
		<layer id="263" name="Constant_7820" type="Convert" version="opset1">
			<data destination_type="f32" />
			<rt_info>
				<attribute name="decompression" version="0" />
			</rt_info>
			<input>
				<port id="0" precision="FP16" />
			</input>
			<output>
				<port id="1" precision="FP32" />
			</output>
		</layer>
		<layer id="264" name="/blocks.3/attn/MatMul_1" type="ScaledDotProductAttention" version="opset13">
			<data causal="false" />
			<input>
				<port id="0" precision="FP32">
					<dim>42</dim>
					<dim>16</dim>
					<dim>257</dim>
					<dim>64</dim>
				</port>
				<port id="1" precision="FP32">
					<dim>42</dim>
					<dim>16</dim>
					<dim>257</dim>
					<dim>64</dim>
				</port>
				<port id="2" precision="FP32">
					<dim>42</dim>
					<dim>16</dim>
					<dim>257</dim>
					<dim>64</dim>
				</port>
				<port id="3" precision="FP32" />
				<port id="4" precision="FP32" />
			</input>
			<output>
				<port id="5" precision="FP32" names="/blocks.3/attn/MatMul_1_output_0">
					<dim>42</dim>
					<dim>16</dim>
					<dim>257</dim>
					<dim>64</dim>
				</port>
			</output>
		</layer>
		<layer id="265" name="Constant_740" type="Const" version="opset1">
			<data element_type="i64" shape="4" offset="8120486" size="32" />
			<output>
				<port id="0" precision="I64">
					<dim>4</dim>
				</port>
			</output>
		</layer>
		<layer id="266" name="/blocks.3/attn/Transpose_2" type="Transpose" version="opset1">
			<input>
				<port id="0" precision="FP32">
					<dim>42</dim>
					<dim>16</dim>
					<dim>257</dim>
					<dim>64</dim>
				</port>
				<port id="1" precision="I64">
					<dim>4</dim>
				</port>
			</input>
			<output>
				<port id="2" precision="FP32" names="/blocks.3/attn/Transpose_2_output_0">
					<dim>42</dim>
					<dim>257</dim>
					<dim>16</dim>
					<dim>64</dim>
				</port>
			</output>
		</layer>
		<layer id="267" name="/blocks.3/attn/Concat_1" type="Const" version="opset1">
			<data element_type="i64" shape="3" offset="8120518" size="24" />
			<rt_info>
				<attribute name="precise" version="0" />
			</rt_info>
			<output>
				<port id="0" precision="I64" names="/blocks.3/attn/Concat_1_output_0">
					<dim>3</dim>
				</port>
			</output>
		</layer>
		<layer id="268" name="/blocks.3/attn/Reshape_1" type="Reshape" version="opset1">
			<data special_zero="true" />
			<input>
				<port id="0" precision="FP32">
					<dim>42</dim>
					<dim>257</dim>
					<dim>16</dim>
					<dim>64</dim>
				</port>
				<port id="1" precision="I64">
					<dim>3</dim>
				</port>
			</input>
			<output>
				<port id="2" precision="FP32" names="/blocks.3/attn/Reshape_1_output_0">
					<dim>42</dim>
					<dim>257</dim>
					<dim>1024</dim>
				</port>
			</output>
		</layer>
		<layer id="269" name="Transpose_7838_compressed" type="Const" version="opset1">
			<data element_type="f16" shape="1024, 1024" offset="83710174" size="2097152" />
			<output>
				<port id="0" precision="FP16">
					<dim>1024</dim>
					<dim>1024</dim>
				</port>
			</output>
		</layer>
		<layer id="270" name="Transpose_7838" type="Convert" version="opset1">
			<data destination_type="f32" />
			<rt_info>
				<attribute name="decompression" version="0" />
			</rt_info>
			<input>
				<port id="0" precision="FP16">
					<dim>1024</dim>
					<dim>1024</dim>
				</port>
			</input>
			<output>
				<port id="1" precision="FP32">
					<dim>1024</dim>
					<dim>1024</dim>
				</port>
			</output>
		</layer>
		<layer id="271" name="/blocks.3/attn/proj/MatMul" type="MatMul" version="opset1">
			<data transpose_a="false" transpose_b="true" />
			<input>
				<port id="0" precision="FP32">
					<dim>42</dim>
					<dim>257</dim>
					<dim>1024</dim>
				</port>
				<port id="1" precision="FP32">
					<dim>1024</dim>
					<dim>1024</dim>
				</port>
			</input>
			<output>
				<port id="2" precision="FP32" names="/blocks.3/attn/proj/MatMul_output_0">
					<dim>42</dim>
					<dim>257</dim>
					<dim>1024</dim>
				</port>
			</output>
		</layer>
		<layer id="272" name="Constant_12018_compressed" type="Const" version="opset1">
			<data element_type="f16" shape="1, 1, 1024" offset="85807326" size="2048" />
			<output>
				<port id="0" precision="FP16">
					<dim>1</dim>
					<dim>1</dim>
					<dim>1024</dim>
				</port>
			</output>
		</layer>
		<layer id="273" name="Constant_12018" type="Convert" version="opset1">
			<data destination_type="f32" />
			<rt_info>
				<attribute name="decompression" version="0" />
			</rt_info>
			<input>
				<port id="0" precision="FP16">
					<dim>1</dim>
					<dim>1</dim>
					<dim>1024</dim>
				</port>
			</input>
			<output>
				<port id="1" precision="FP32">
					<dim>1</dim>
					<dim>1</dim>
					<dim>1024</dim>
				</port>
			</output>
		</layer>
		<layer id="274" name="Multiply_11652" type="Multiply" version="opset1">
			<data auto_broadcast="numpy" />
			<input>
				<port id="0" precision="FP32">
					<dim>42</dim>
					<dim>257</dim>
					<dim>1024</dim>
				</port>
				<port id="1" precision="FP32">
					<dim>1</dim>
					<dim>1</dim>
					<dim>1024</dim>
				</port>
			</input>
			<output>
				<port id="2" precision="FP32">
					<dim>42</dim>
					<dim>257</dim>
					<dim>1024</dim>
				</port>
			</output>
		</layer>
		<layer id="275" name="Constant_12019_compressed" type="Const" version="opset1">
			<data element_type="f16" shape="1, 1, 1024" offset="85809374" size="2048" />
			<output>
				<port id="0" precision="FP16">
					<dim>1</dim>
					<dim>1</dim>
					<dim>1024</dim>
				</port>
			</output>
		</layer>
		<layer id="276" name="Constant_12019" type="Convert" version="opset1">
			<data destination_type="f32" />
			<rt_info>
				<attribute name="decompression" version="0" />
			</rt_info>
			<input>
				<port id="0" precision="FP16">
					<dim>1</dim>
					<dim>1</dim>
					<dim>1024</dim>
				</port>
			</input>
			<output>
				<port id="1" precision="FP32">
					<dim>1</dim>
					<dim>1</dim>
					<dim>1024</dim>
				</port>
			</output>
		</layer>
		<layer id="277" name="/blocks.3/ls1/Mul" type="Add" version="opset1">
			<data auto_broadcast="numpy" />
			<input>
				<port id="0" precision="FP32">
					<dim>42</dim>
					<dim>257</dim>
					<dim>1024</dim>
				</port>
				<port id="1" precision="FP32">
					<dim>1</dim>
					<dim>1</dim>
					<dim>1024</dim>
				</port>
			</input>
			<output>
				<port id="2" precision="FP32" names="/blocks.3/ls1/Mul_output_0">
					<dim>42</dim>
					<dim>257</dim>
					<dim>1024</dim>
				</port>
			</output>
		</layer>
		<layer id="278" name="/blocks.3/Add" type="Add" version="opset1">
			<data auto_broadcast="numpy" />
			<input>
				<port id="0" precision="FP32">
					<dim>42</dim>
					<dim>257</dim>
					<dim>1024</dim>
				</port>
				<port id="1" precision="FP32">
					<dim>42</dim>
					<dim>257</dim>
					<dim>1024</dim>
				</port>
			</input>
			<output>
				<port id="2" precision="FP32" names="/blocks.3/Add_output_0">
					<dim>42</dim>
					<dim>257</dim>
					<dim>1024</dim>
				</port>
			</output>
		</layer>
		<layer id="279" name="Constant_12022_compressed" type="Const" version="opset1">
			<data element_type="f16" shape="1, 1, 4096" offset="85811422" size="8192" />
			<output>
				<port id="0" precision="FP16">
					<dim>1</dim>
					<dim>1</dim>
					<dim>4096</dim>
				</port>
			</output>
		</layer>
		<layer id="280" name="Constant_12022" type="Convert" version="opset1">
			<data destination_type="f32" />
			<rt_info>
				<attribute name="decompression" version="0" />
			</rt_info>
			<input>
				<port id="0" precision="FP16">
					<dim>1</dim>
					<dim>1</dim>
					<dim>4096</dim>
				</port>
			</input>
			<output>
				<port id="1" precision="FP32">
					<dim>1</dim>
					<dim>1</dim>
					<dim>4096</dim>
				</port>
			</output>
		</layer>
		<layer id="281" name="Range_759" type="Const" version="opset1">
			<data element_type="i64" shape="1" offset="1824816" size="8" />
			<output>
				<port id="0" precision="I64">
					<dim>1</dim>
				</port>
			</output>
		</layer>
		<layer id="282" name="MVN_760" type="MVN" version="opset6">
			<data eps="9.9999999747524271e-07" normalize_variance="true" eps_mode="INSIDE_SQRT" />
			<input>
				<port id="0" precision="FP32">
					<dim>42</dim>
					<dim>257</dim>
					<dim>1024</dim>
				</port>
				<port id="1" precision="I64">
					<dim>1</dim>
				</port>
			</input>
			<output>
				<port id="2" precision="FP32">
					<dim>42</dim>
					<dim>257</dim>
					<dim>1024</dim>
				</port>
			</output>
		</layer>
		<layer id="283" name="Constant_12020_compressed" type="Const" version="opset1">
			<data element_type="f16" shape="1, 1, 1024" offset="85819614" size="2048" />
			<output>
				<port id="0" precision="FP16">
					<dim>1</dim>
					<dim>1</dim>
					<dim>1024</dim>
				</port>
			</output>
		</layer>
		<layer id="284" name="Constant_12020" type="Convert" version="opset1">
			<data destination_type="f32" />
			<rt_info>
				<attribute name="decompression" version="0" />
			</rt_info>
			<input>
				<port id="0" precision="FP16">
					<dim>1</dim>
					<dim>1</dim>
					<dim>1024</dim>
				</port>
			</input>
			<output>
				<port id="1" precision="FP32">
					<dim>1</dim>
					<dim>1</dim>
					<dim>1024</dim>
				</port>
			</output>
		</layer>
		<layer id="285" name="Multiply_761" type="Multiply" version="opset1">
			<data auto_broadcast="numpy" />
			<input>
				<port id="0" precision="FP32">
					<dim>42</dim>
					<dim>257</dim>
					<dim>1024</dim>
				</port>
				<port id="1" precision="FP32">
					<dim>1</dim>
					<dim>1</dim>
					<dim>1024</dim>
				</port>
			</input>
			<output>
				<port id="2" precision="FP32">
					<dim>42</dim>
					<dim>257</dim>
					<dim>1024</dim>
				</port>
			</output>
		</layer>
		<layer id="286" name="Constant_12021_compressed" type="Const" version="opset1">
			<data element_type="f16" shape="1, 1, 1024" offset="85821662" size="2048" />
			<output>
				<port id="0" precision="FP16">
					<dim>1</dim>
					<dim>1</dim>
					<dim>1024</dim>
				</port>
			</output>
		</layer>
		<layer id="287" name="Constant_12021" type="Convert" version="opset1">
			<data destination_type="f32" />
			<rt_info>
				<attribute name="decompression" version="0" />
			</rt_info>
			<input>
				<port id="0" precision="FP16">
					<dim>1</dim>
					<dim>1</dim>
					<dim>1024</dim>
				</port>
			</input>
			<output>
				<port id="1" precision="FP32">
					<dim>1</dim>
					<dim>1</dim>
					<dim>1024</dim>
				</port>
			</output>
		</layer>
		<layer id="288" name="/blocks.3/norm2/LayerNormalization" type="Add" version="opset1">
			<data auto_broadcast="numpy" />
			<input>
				<port id="0" precision="FP32">
					<dim>42</dim>
					<dim>257</dim>
					<dim>1024</dim>
				</port>
				<port id="1" precision="FP32">
					<dim>1</dim>
					<dim>1</dim>
					<dim>1024</dim>
				</port>
			</input>
			<output>
				<port id="2" precision="FP32" names="/blocks.3/norm2/LayerNormalization_output_0">
					<dim>42</dim>
					<dim>257</dim>
					<dim>1024</dim>
				</port>
			</output>
		</layer>
		<layer id="289" name="Transpose_7883_compressed" type="Const" version="opset1">
			<data element_type="f16" shape="4096, 1024" offset="85823710" size="8388608" />
			<output>
				<port id="0" precision="FP16">
					<dim>4096</dim>
					<dim>1024</dim>
				</port>
			</output>
		</layer>
		<layer id="290" name="Transpose_7883" type="Convert" version="opset1">
			<data destination_type="f32" />
			<rt_info>
				<attribute name="decompression" version="0" />
			</rt_info>
			<input>
				<port id="0" precision="FP16">
					<dim>4096</dim>
					<dim>1024</dim>
				</port>
			</input>
			<output>
				<port id="1" precision="FP32">
					<dim>4096</dim>
					<dim>1024</dim>
				</port>
			</output>
		</layer>
		<layer id="291" name="/blocks.3/mlp/fc1/MatMul" type="MatMul" version="opset1">
			<data transpose_a="false" transpose_b="true" />
			<input>
				<port id="0" precision="FP32">
					<dim>42</dim>
					<dim>257</dim>
					<dim>1024</dim>
				</port>
				<port id="1" precision="FP32">
					<dim>4096</dim>
					<dim>1024</dim>
				</port>
			</input>
			<output>
				<port id="2" precision="FP32" names="/blocks.3/mlp/fc1/MatMul_output_0">
					<dim>42</dim>
					<dim>257</dim>
					<dim>4096</dim>
				</port>
			</output>
		</layer>
		<layer id="292" name="/blocks.3/mlp/fc1/Add" type="Add" version="opset1">
			<data auto_broadcast="numpy" />
			<input>
				<port id="0" precision="FP32">
					<dim>1</dim>
					<dim>1</dim>
					<dim>4096</dim>
				</port>
				<port id="1" precision="FP32">
					<dim>42</dim>
					<dim>257</dim>
					<dim>4096</dim>
				</port>
			</input>
			<output>
				<port id="2" precision="FP32" names="/blocks.3/mlp/fc1/Add_output_0">
					<dim>42</dim>
					<dim>257</dim>
					<dim>4096</dim>
				</port>
			</output>
		</layer>
		<layer id="293" name="/blocks.3/mlp/act/Mul_1" type="Gelu" version="opset7">
			<data approximation_mode="ERF" />
			<input>
				<port id="0" precision="FP32">
					<dim>42</dim>
					<dim>257</dim>
					<dim>4096</dim>
				</port>
			</input>
			<output>
				<port id="1" precision="FP32" names="/blocks.3/mlp/act/Mul_1_output_0">
					<dim>42</dim>
					<dim>257</dim>
					<dim>4096</dim>
				</port>
			</output>
		</layer>
		<layer id="294" name="Transpose_7900_compressed" type="Const" version="opset1">
			<data element_type="f16" shape="1024, 4096" offset="94212318" size="8388608" />
			<output>
				<port id="0" precision="FP16">
					<dim>1024</dim>
					<dim>4096</dim>
				</port>
			</output>
		</layer>
		<layer id="295" name="Transpose_7900" type="Convert" version="opset1">
			<data destination_type="f32" />
			<rt_info>
				<attribute name="decompression" version="0" />
			</rt_info>
			<input>
				<port id="0" precision="FP16">
					<dim>1024</dim>
					<dim>4096</dim>
				</port>
			</input>
			<output>
				<port id="1" precision="FP32">
					<dim>1024</dim>
					<dim>4096</dim>
				</port>
			</output>
		</layer>
		<layer id="296" name="/blocks.3/mlp/fc2/MatMul" type="MatMul" version="opset1">
			<data transpose_a="false" transpose_b="true" />
			<input>
				<port id="0" precision="FP32">
					<dim>42</dim>
					<dim>257</dim>
					<dim>4096</dim>
				</port>
				<port id="1" precision="FP32">
					<dim>1024</dim>
					<dim>4096</dim>
				</port>
			</input>
			<output>
				<port id="2" precision="FP32" names="/blocks.3/mlp/fc2/MatMul_output_0">
					<dim>42</dim>
					<dim>257</dim>
					<dim>1024</dim>
				</port>
			</output>
		</layer>
		<layer id="297" name="Constant_12023_compressed" type="Const" version="opset1">
			<data element_type="f16" shape="1, 1, 1024" offset="102600926" size="2048" />
			<output>
				<port id="0" precision="FP16">
					<dim>1</dim>
					<dim>1</dim>
					<dim>1024</dim>
				</port>
			</output>
		</layer>
		<layer id="298" name="Constant_12023" type="Convert" version="opset1">
			<data destination_type="f32" />
			<rt_info>
				<attribute name="decompression" version="0" />
			</rt_info>
			<input>
				<port id="0" precision="FP16">
					<dim>1</dim>
					<dim>1</dim>
					<dim>1024</dim>
				</port>
			</input>
			<output>
				<port id="1" precision="FP32">
					<dim>1</dim>
					<dim>1</dim>
					<dim>1024</dim>
				</port>
			</output>
		</layer>
		<layer id="299" name="Multiply_11656" type="Multiply" version="opset1">
			<data auto_broadcast="numpy" />
			<input>
				<port id="0" precision="FP32">
					<dim>42</dim>
					<dim>257</dim>
					<dim>1024</dim>
				</port>
				<port id="1" precision="FP32">
					<dim>1</dim>
					<dim>1</dim>
					<dim>1024</dim>
				</port>
			</input>
			<output>
				<port id="2" precision="FP32">
					<dim>42</dim>
					<dim>257</dim>
					<dim>1024</dim>
				</port>
			</output>
		</layer>
		<layer id="300" name="Constant_12024_compressed" type="Const" version="opset1">
			<data element_type="f16" shape="1, 1, 1024" offset="102602974" size="2048" />
			<output>
				<port id="0" precision="FP16">
					<dim>1</dim>
					<dim>1</dim>
					<dim>1024</dim>
				</port>
			</output>
		</layer>
		<layer id="301" name="Constant_12024" type="Convert" version="opset1">
			<data destination_type="f32" />
			<rt_info>
				<attribute name="decompression" version="0" />
			</rt_info>
			<input>
				<port id="0" precision="FP16">
					<dim>1</dim>
					<dim>1</dim>
					<dim>1024</dim>
				</port>
			</input>
			<output>
				<port id="1" precision="FP32">
					<dim>1</dim>
					<dim>1</dim>
					<dim>1024</dim>
				</port>
			</output>
		</layer>
		<layer id="302" name="/blocks.3/ls2/Mul" type="Add" version="opset1">
			<data auto_broadcast="numpy" />
			<input>
				<port id="0" precision="FP32">
					<dim>42</dim>
					<dim>257</dim>
					<dim>1024</dim>
				</port>
				<port id="1" precision="FP32">
					<dim>1</dim>
					<dim>1</dim>
					<dim>1024</dim>
				</port>
			</input>
			<output>
				<port id="2" precision="FP32" names="/blocks.3/ls2/Mul_output_0">
					<dim>42</dim>
					<dim>257</dim>
					<dim>1024</dim>
				</port>
			</output>
		</layer>
		<layer id="303" name="/blocks.3/Add_1" type="Add" version="opset1">
			<data auto_broadcast="numpy" />
			<input>
				<port id="0" precision="FP32">
					<dim>42</dim>
					<dim>257</dim>
					<dim>1024</dim>
				</port>
				<port id="1" precision="FP32">
					<dim>42</dim>
					<dim>257</dim>
					<dim>1024</dim>
				</port>
			</input>
			<output>
				<port id="2" precision="FP32" names="/blocks.3/Add_1_output_0">
					<dim>42</dim>
					<dim>257</dim>
					<dim>1024</dim>
				</port>
			</output>
		</layer>
		<layer id="304" name="Constant_12027_compressed" type="Const" version="opset1">
			<data element_type="f16" shape="1, 1, 3072" offset="102605022" size="6144" />
			<output>
				<port id="0" precision="FP16">
					<dim>1</dim>
					<dim>1</dim>
					<dim>3072</dim>
				</port>
			</output>
		</layer>
		<layer id="305" name="Constant_12027" type="Convert" version="opset1">
			<data destination_type="f32" />
			<rt_info>
				<attribute name="decompression" version="0" />
			</rt_info>
			<input>
				<port id="0" precision="FP16">
					<dim>1</dim>
					<dim>1</dim>
					<dim>3072</dim>
				</port>
			</input>
			<output>
				<port id="1" precision="FP32">
					<dim>1</dim>
					<dim>1</dim>
					<dim>3072</dim>
				</port>
			</output>
		</layer>
		<layer id="306" name="Range_784" type="Const" version="opset1">
			<data element_type="i64" shape="1" offset="1824816" size="8" />
			<output>
				<port id="0" precision="I64">
					<dim>1</dim>
				</port>
			</output>
		</layer>
		<layer id="307" name="MVN_785" type="MVN" version="opset6">
			<data eps="9.9999999747524271e-07" normalize_variance="true" eps_mode="INSIDE_SQRT" />
			<input>
				<port id="0" precision="FP32">
					<dim>42</dim>
					<dim>257</dim>
					<dim>1024</dim>
				</port>
				<port id="1" precision="I64">
					<dim>1</dim>
				</port>
			</input>
			<output>
				<port id="2" precision="FP32">
					<dim>42</dim>
					<dim>257</dim>
					<dim>1024</dim>
				</port>
			</output>
		</layer>
		<layer id="308" name="Constant_12025_compressed" type="Const" version="opset1">
			<data element_type="f16" shape="1, 1, 1024" offset="102611166" size="2048" />
			<output>
				<port id="0" precision="FP16">
					<dim>1</dim>
					<dim>1</dim>
					<dim>1024</dim>
				</port>
			</output>
		</layer>
		<layer id="309" name="Constant_12025" type="Convert" version="opset1">
			<data destination_type="f32" />
			<rt_info>
				<attribute name="decompression" version="0" />
			</rt_info>
			<input>
				<port id="0" precision="FP16">
					<dim>1</dim>
					<dim>1</dim>
					<dim>1024</dim>
				</port>
			</input>
			<output>
				<port id="1" precision="FP32">
					<dim>1</dim>
					<dim>1</dim>
					<dim>1024</dim>
				</port>
			</output>
		</layer>
		<layer id="310" name="Multiply_786" type="Multiply" version="opset1">
			<data auto_broadcast="numpy" />
			<input>
				<port id="0" precision="FP32">
					<dim>42</dim>
					<dim>257</dim>
					<dim>1024</dim>
				</port>
				<port id="1" precision="FP32">
					<dim>1</dim>
					<dim>1</dim>
					<dim>1024</dim>
				</port>
			</input>
			<output>
				<port id="2" precision="FP32">
					<dim>42</dim>
					<dim>257</dim>
					<dim>1024</dim>
				</port>
			</output>
		</layer>
		<layer id="311" name="Constant_12026_compressed" type="Const" version="opset1">
			<data element_type="f16" shape="1, 1, 1024" offset="102613214" size="2048" />
			<output>
				<port id="0" precision="FP16">
					<dim>1</dim>
					<dim>1</dim>
					<dim>1024</dim>
				</port>
			</output>
		</layer>
		<layer id="312" name="Constant_12026" type="Convert" version="opset1">
			<data destination_type="f32" />
			<rt_info>
				<attribute name="decompression" version="0" />
			</rt_info>
			<input>
				<port id="0" precision="FP16">
					<dim>1</dim>
					<dim>1</dim>
					<dim>1024</dim>
				</port>
			</input>
			<output>
				<port id="1" precision="FP32">
					<dim>1</dim>
					<dim>1</dim>
					<dim>1024</dim>
				</port>
			</output>
		</layer>
		<layer id="313" name="/blocks.4/norm1/LayerNormalization" type="Add" version="opset1">
			<data auto_broadcast="numpy" />
			<input>
				<port id="0" precision="FP32">
					<dim>42</dim>
					<dim>257</dim>
					<dim>1024</dim>
				</port>
				<port id="1" precision="FP32">
					<dim>1</dim>
					<dim>1</dim>
					<dim>1024</dim>
				</port>
			</input>
			<output>
				<port id="2" precision="FP32" names="/blocks.4/norm1/LayerNormalization_output_0">
					<dim>42</dim>
					<dim>257</dim>
					<dim>1024</dim>
				</port>
			</output>
		</layer>
		<layer id="314" name="Transpose_7945_compressed" type="Const" version="opset1">
			<data element_type="f16" shape="3072, 1024" offset="102615262" size="6291456" />
			<output>
				<port id="0" precision="FP16">
					<dim>3072</dim>
					<dim>1024</dim>
				</port>
			</output>
		</layer>
		<layer id="315" name="Transpose_7945" type="Convert" version="opset1">
			<data destination_type="f32" />
			<rt_info>
				<attribute name="decompression" version="0" />
			</rt_info>
			<input>
				<port id="0" precision="FP16">
					<dim>3072</dim>
					<dim>1024</dim>
				</port>
			</input>
			<output>
				<port id="1" precision="FP32">
					<dim>3072</dim>
					<dim>1024</dim>
				</port>
			</output>
		</layer>
		<layer id="316" name="/blocks.4/attn/qkv/MatMul" type="MatMul" version="opset1">
			<data transpose_a="false" transpose_b="true" />
			<input>
				<port id="0" precision="FP32">
					<dim>42</dim>
					<dim>257</dim>
					<dim>1024</dim>
				</port>
				<port id="1" precision="FP32">
					<dim>3072</dim>
					<dim>1024</dim>
				</port>
			</input>
			<output>
				<port id="2" precision="FP32" names="/blocks.4/attn/qkv/MatMul_output_0">
					<dim>42</dim>
					<dim>257</dim>
					<dim>3072</dim>
				</port>
			</output>
		</layer>
		<layer id="317" name="/blocks.4/attn/qkv/Add" type="Add" version="opset1">
			<data auto_broadcast="numpy" />
			<input>
				<port id="0" precision="FP32">
					<dim>1</dim>
					<dim>1</dim>
					<dim>3072</dim>
				</port>
				<port id="1" precision="FP32">
					<dim>42</dim>
					<dim>257</dim>
					<dim>3072</dim>
				</port>
			</input>
			<output>
				<port id="2" precision="FP32" names="/blocks.4/attn/qkv/Add_output_0">
					<dim>42</dim>
					<dim>257</dim>
					<dim>3072</dim>
				</port>
			</output>
		</layer>
		<layer id="318" name="/blocks.4/attn/Concat" type="Const" version="opset1">
			<data element_type="i64" shape="5" offset="8120376" size="40" />
			<rt_info>
				<attribute name="precise" version="0" />
			</rt_info>
			<output>
				<port id="0" precision="I64" names="/blocks.4/attn/Concat_output_0">
					<dim>5</dim>
				</port>
			</output>
		</layer>
		<layer id="319" name="/blocks.4/attn/Reshape" type="Reshape" version="opset1">
			<data special_zero="true" />
			<input>
				<port id="0" precision="FP32">
					<dim>42</dim>
					<dim>257</dim>
					<dim>3072</dim>
				</port>
				<port id="1" precision="I64">
					<dim>5</dim>
				</port>
			</input>
			<output>
				<port id="2" precision="FP32" names="/blocks.4/attn/Reshape_output_0">
					<dim>42</dim>
					<dim>257</dim>
					<dim>3</dim>
					<dim>16</dim>
					<dim>64</dim>
				</port>
			</output>
		</layer>
		<layer id="320" name="Constant_808" type="Const" version="opset1">
			<data element_type="i64" shape="5" offset="8120416" size="40" />
			<output>
				<port id="0" precision="I64">
					<dim>5</dim>
				</port>
			</output>
		</layer>
		<layer id="321" name="/blocks.4/attn/Transpose" type="Transpose" version="opset1">
			<input>
				<port id="0" precision="FP32">
					<dim>42</dim>
					<dim>257</dim>
					<dim>3</dim>
					<dim>16</dim>
					<dim>64</dim>
				</port>
				<port id="1" precision="I64">
					<dim>5</dim>
				</port>
			</input>
			<output>
				<port id="2" precision="FP32" names="/blocks.4/attn/Transpose_output_0">
					<dim>3</dim>
					<dim>42</dim>
					<dim>16</dim>
					<dim>257</dim>
					<dim>64</dim>
				</port>
			</output>
		</layer>
		<layer id="322" name="Constant_810" type="Const" version="opset1">
			<data element_type="i64" shape="" offset="8120456" size="8" />
			<output>
				<port id="0" precision="I64" />
			</output>
		</layer>
		<layer id="323" name="/blocks.4/attn/Gather" type="Gather" version="opset8">
			<data batch_dims="0" />
			<input>
				<port id="0" precision="FP32">
					<dim>3</dim>
					<dim>42</dim>
					<dim>16</dim>
					<dim>257</dim>
					<dim>64</dim>
				</port>
				<port id="1" precision="I64" />
				<port id="2" precision="I64" />
			</input>
			<output>
				<port id="3" precision="FP32" names="/blocks.4/attn/Gather_output_0">
					<dim>42</dim>
					<dim>16</dim>
					<dim>257</dim>
					<dim>64</dim>
				</port>
			</output>
		</layer>
		<layer id="324" name="Constant_12028_compressed" type="Const" version="opset1">
			<data element_type="f16" shape="1, 1, 1, 1" offset="8120464" size="2" />
			<output>
				<port id="0" precision="FP16">
					<dim>1</dim>
					<dim>1</dim>
					<dim>1</dim>
					<dim>1</dim>
				</port>
			</output>
		</layer>
		<layer id="325" name="Constant_12028" type="Convert" version="opset1">
			<data destination_type="f32" />
			<rt_info>
				<attribute name="decompression" version="0" />
			</rt_info>
			<input>
				<port id="0" precision="FP16">
					<dim>1</dim>
					<dim>1</dim>
					<dim>1</dim>
					<dim>1</dim>
				</port>
			</input>
			<output>
				<port id="1" precision="FP32">
					<dim>1</dim>
					<dim>1</dim>
					<dim>1</dim>
					<dim>1</dim>
				</port>
			</output>
		</layer>
		<layer id="326" name="/blocks.4/attn/Mul" type="Multiply" version="opset1">
			<data auto_broadcast="numpy" />
			<input>
				<port id="0" precision="FP32">
					<dim>42</dim>
					<dim>16</dim>
					<dim>257</dim>
					<dim>64</dim>
				</port>
				<port id="1" precision="FP32">
					<dim>1</dim>
					<dim>1</dim>
					<dim>1</dim>
					<dim>1</dim>
				</port>
			</input>
			<output>
				<port id="2" precision="FP32" names="/blocks.4/attn/Mul_output_0">
					<dim>42</dim>
					<dim>16</dim>
					<dim>257</dim>
					<dim>64</dim>
				</port>
			</output>
		</layer>
		<layer id="327" name="Constant_814" type="Const" version="opset1">
			<data element_type="i64" shape="" offset="8120456" size="8" />
			<output>
				<port id="0" precision="I64" />
			</output>
		</layer>
		<layer id="328" name="/blocks.4/attn/Gather_1" type="Gather" version="opset8">
			<data batch_dims="0" />
			<input>
				<port id="0" precision="FP32">
					<dim>3</dim>
					<dim>42</dim>
					<dim>16</dim>
					<dim>257</dim>
					<dim>64</dim>
				</port>
				<port id="1" precision="I64" />
				<port id="2" precision="I64" />
			</input>
			<output>
				<port id="3" precision="FP32" names="/blocks.4/attn/Gather_1_output_0">
					<dim>42</dim>
					<dim>16</dim>
					<dim>257</dim>
					<dim>64</dim>
				</port>
			</output>
		</layer>
		<layer id="329" name="Constant_816" type="Const" version="opset1">
			<data element_type="i64" shape="" offset="8120456" size="8" />
			<output>
				<port id="0" precision="I64" />
			</output>
		</layer>
		<layer id="330" name="/blocks.4/attn/Gather_2" type="Gather" version="opset8">
			<data batch_dims="0" />
			<input>
				<port id="0" precision="FP32">
					<dim>3</dim>
					<dim>42</dim>
					<dim>16</dim>
					<dim>257</dim>
					<dim>64</dim>
				</port>
				<port id="1" precision="I64" />
				<port id="2" precision="I64" />
			</input>
			<output>
				<port id="3" precision="FP32" names="/blocks.4/attn/Gather_2_output_0">
					<dim>42</dim>
					<dim>16</dim>
					<dim>257</dim>
					<dim>64</dim>
				</port>
			</output>
		</layer>
		<layer id="331" name="Constant_8004_compressed" type="Const" version="opset1">
			<data element_type="f16" shape="" offset="8120482" size="2" />
			<output>
				<port id="0" precision="FP16" />
			</output>
		</layer>
		<layer id="332" name="Constant_8004" type="Convert" version="opset1">
			<data destination_type="f32" />
			<rt_info>
				<attribute name="decompression" version="0" />
			</rt_info>
			<input>
				<port id="0" precision="FP16" />
			</input>
			<output>
				<port id="1" precision="FP32" />
			</output>
		</layer>
		<layer id="333" name="Constant_8003_compressed" type="Const" version="opset1">
			<data element_type="f16" shape="" offset="8120484" size="2" />
			<output>
				<port id="0" precision="FP16" />
			</output>
		</layer>
		<layer id="334" name="Constant_8003" type="Convert" version="opset1">
			<data destination_type="f32" />
			<rt_info>
				<attribute name="decompression" version="0" />
			</rt_info>
			<input>
				<port id="0" precision="FP16" />
			</input>
			<output>
				<port id="1" precision="FP32" />
			</output>
		</layer>
		<layer id="335" name="/blocks.4/attn/MatMul_1" type="ScaledDotProductAttention" version="opset13">
			<data causal="false" />
			<input>
				<port id="0" precision="FP32">
					<dim>42</dim>
					<dim>16</dim>
					<dim>257</dim>
					<dim>64</dim>
				</port>
				<port id="1" precision="FP32">
					<dim>42</dim>
					<dim>16</dim>
					<dim>257</dim>
					<dim>64</dim>
				</port>
				<port id="2" precision="FP32">
					<dim>42</dim>
					<dim>16</dim>
					<dim>257</dim>
					<dim>64</dim>
				</port>
				<port id="3" precision="FP32" />
				<port id="4" precision="FP32" />
			</input>
			<output>
				<port id="5" precision="FP32" names="/blocks.4/attn/MatMul_1_output_0">
					<dim>42</dim>
					<dim>16</dim>
					<dim>257</dim>
					<dim>64</dim>
				</port>
			</output>
		</layer>
		<layer id="336" name="Constant_823" type="Const" version="opset1">
			<data element_type="i64" shape="4" offset="8120486" size="32" />
			<output>
				<port id="0" precision="I64">
					<dim>4</dim>
				</port>
			</output>
		</layer>
		<layer id="337" name="/blocks.4/attn/Transpose_2" type="Transpose" version="opset1">
			<input>
				<port id="0" precision="FP32">
					<dim>42</dim>
					<dim>16</dim>
					<dim>257</dim>
					<dim>64</dim>
				</port>
				<port id="1" precision="I64">
					<dim>4</dim>
				</port>
			</input>
			<output>
				<port id="2" precision="FP32" names="/blocks.4/attn/Transpose_2_output_0">
					<dim>42</dim>
					<dim>257</dim>
					<dim>16</dim>
					<dim>64</dim>
				</port>
			</output>
		</layer>
		<layer id="338" name="/blocks.4/attn/Concat_1" type="Const" version="opset1">
			<data element_type="i64" shape="3" offset="8120518" size="24" />
			<rt_info>
				<attribute name="precise" version="0" />
			</rt_info>
			<output>
				<port id="0" precision="I64" names="/blocks.4/attn/Concat_1_output_0">
					<dim>3</dim>
				</port>
			</output>
		</layer>
		<layer id="339" name="/blocks.4/attn/Reshape_1" type="Reshape" version="opset1">
			<data special_zero="true" />
			<input>
				<port id="0" precision="FP32">
					<dim>42</dim>
					<dim>257</dim>
					<dim>16</dim>
					<dim>64</dim>
				</port>
				<port id="1" precision="I64">
					<dim>3</dim>
				</port>
			</input>
			<output>
				<port id="2" precision="FP32" names="/blocks.4/attn/Reshape_1_output_0">
					<dim>42</dim>
					<dim>257</dim>
					<dim>1024</dim>
				</port>
			</output>
		</layer>
		<layer id="340" name="Transpose_8021_compressed" type="Const" version="opset1">
			<data element_type="f16" shape="1024, 1024" offset="108906718" size="2097152" />
			<output>
				<port id="0" precision="FP16">
					<dim>1024</dim>
					<dim>1024</dim>
				</port>
			</output>
		</layer>
		<layer id="341" name="Transpose_8021" type="Convert" version="opset1">
			<data destination_type="f32" />
			<rt_info>
				<attribute name="decompression" version="0" />
			</rt_info>
			<input>
				<port id="0" precision="FP16">
					<dim>1024</dim>
					<dim>1024</dim>
				</port>
			</input>
			<output>
				<port id="1" precision="FP32">
					<dim>1024</dim>
					<dim>1024</dim>
				</port>
			</output>
		</layer>
		<layer id="342" name="/blocks.4/attn/proj/MatMul" type="MatMul" version="opset1">
			<data transpose_a="false" transpose_b="true" />
			<input>
				<port id="0" precision="FP32">
					<dim>42</dim>
					<dim>257</dim>
					<dim>1024</dim>
				</port>
				<port id="1" precision="FP32">
					<dim>1024</dim>
					<dim>1024</dim>
				</port>
			</input>
			<output>
				<port id="2" precision="FP32" names="/blocks.4/attn/proj/MatMul_output_0">
					<dim>42</dim>
					<dim>257</dim>
					<dim>1024</dim>
				</port>
			</output>
		</layer>
		<layer id="343" name="Constant_12029_compressed" type="Const" version="opset1">
			<data element_type="f16" shape="1, 1, 1024" offset="111003870" size="2048" />
			<output>
				<port id="0" precision="FP16">
					<dim>1</dim>
					<dim>1</dim>
					<dim>1024</dim>
				</port>
			</output>
		</layer>
		<layer id="344" name="Constant_12029" type="Convert" version="opset1">
			<data destination_type="f32" />
			<rt_info>
				<attribute name="decompression" version="0" />
			</rt_info>
			<input>
				<port id="0" precision="FP16">
					<dim>1</dim>
					<dim>1</dim>
					<dim>1024</dim>
				</port>
			</input>
			<output>
				<port id="1" precision="FP32">
					<dim>1</dim>
					<dim>1</dim>
					<dim>1024</dim>
				</port>
			</output>
		</layer>
		<layer id="345" name="Multiply_11660" type="Multiply" version="opset1">
			<data auto_broadcast="numpy" />
			<input>
				<port id="0" precision="FP32">
					<dim>42</dim>
					<dim>257</dim>
					<dim>1024</dim>
				</port>
				<port id="1" precision="FP32">
					<dim>1</dim>
					<dim>1</dim>
					<dim>1024</dim>
				</port>
			</input>
			<output>
				<port id="2" precision="FP32">
					<dim>42</dim>
					<dim>257</dim>
					<dim>1024</dim>
				</port>
			</output>
		</layer>
		<layer id="346" name="Constant_12030_compressed" type="Const" version="opset1">
			<data element_type="f16" shape="1, 1, 1024" offset="111005918" size="2048" />
			<output>
				<port id="0" precision="FP16">
					<dim>1</dim>
					<dim>1</dim>
					<dim>1024</dim>
				</port>
			</output>
		</layer>
		<layer id="347" name="Constant_12030" type="Convert" version="opset1">
			<data destination_type="f32" />
			<rt_info>
				<attribute name="decompression" version="0" />
			</rt_info>
			<input>
				<port id="0" precision="FP16">
					<dim>1</dim>
					<dim>1</dim>
					<dim>1024</dim>
				</port>
			</input>
			<output>
				<port id="1" precision="FP32">
					<dim>1</dim>
					<dim>1</dim>
					<dim>1024</dim>
				</port>
			</output>
		</layer>
		<layer id="348" name="/blocks.4/ls1/Mul" type="Add" version="opset1">
			<data auto_broadcast="numpy" />
			<input>
				<port id="0" precision="FP32">
					<dim>42</dim>
					<dim>257</dim>
					<dim>1024</dim>
				</port>
				<port id="1" precision="FP32">
					<dim>1</dim>
					<dim>1</dim>
					<dim>1024</dim>
				</port>
			</input>
			<output>
				<port id="2" precision="FP32" names="/blocks.4/ls1/Mul_output_0">
					<dim>42</dim>
					<dim>257</dim>
					<dim>1024</dim>
				</port>
			</output>
		</layer>
		<layer id="349" name="/blocks.4/Add" type="Add" version="opset1">
			<data auto_broadcast="numpy" />
			<input>
				<port id="0" precision="FP32">
					<dim>42</dim>
					<dim>257</dim>
					<dim>1024</dim>
				</port>
				<port id="1" precision="FP32">
					<dim>42</dim>
					<dim>257</dim>
					<dim>1024</dim>
				</port>
			</input>
			<output>
				<port id="2" precision="FP32" names="/blocks.4/Add_output_0">
					<dim>42</dim>
					<dim>257</dim>
					<dim>1024</dim>
				</port>
			</output>
		</layer>
		<layer id="350" name="Constant_12033_compressed" type="Const" version="opset1">
			<data element_type="f16" shape="1, 1, 4096" offset="111007966" size="8192" />
			<output>
				<port id="0" precision="FP16">
					<dim>1</dim>
					<dim>1</dim>
					<dim>4096</dim>
				</port>
			</output>
		</layer>
		<layer id="351" name="Constant_12033" type="Convert" version="opset1">
			<data destination_type="f32" />
			<rt_info>
				<attribute name="decompression" version="0" />
			</rt_info>
			<input>
				<port id="0" precision="FP16">
					<dim>1</dim>
					<dim>1</dim>
					<dim>4096</dim>
				</port>
			</input>
			<output>
				<port id="1" precision="FP32">
					<dim>1</dim>
					<dim>1</dim>
					<dim>4096</dim>
				</port>
			</output>
		</layer>
		<layer id="352" name="Range_842" type="Const" version="opset1">
			<data element_type="i64" shape="1" offset="1824816" size="8" />
			<output>
				<port id="0" precision="I64">
					<dim>1</dim>
				</port>
			</output>
		</layer>
		<layer id="353" name="MVN_843" type="MVN" version="opset6">
			<data eps="9.9999999747524271e-07" normalize_variance="true" eps_mode="INSIDE_SQRT" />
			<input>
				<port id="0" precision="FP32">
					<dim>42</dim>
					<dim>257</dim>
					<dim>1024</dim>
				</port>
				<port id="1" precision="I64">
					<dim>1</dim>
				</port>
			</input>
			<output>
				<port id="2" precision="FP32">
					<dim>42</dim>
					<dim>257</dim>
					<dim>1024</dim>
				</port>
			</output>
		</layer>
		<layer id="354" name="Constant_12031_compressed" type="Const" version="opset1">
			<data element_type="f16" shape="1, 1, 1024" offset="111016158" size="2048" />
			<output>
				<port id="0" precision="FP16">
					<dim>1</dim>
					<dim>1</dim>
					<dim>1024</dim>
				</port>
			</output>
		</layer>
		<layer id="355" name="Constant_12031" type="Convert" version="opset1">
			<data destination_type="f32" />
			<rt_info>
				<attribute name="decompression" version="0" />
			</rt_info>
			<input>
				<port id="0" precision="FP16">
					<dim>1</dim>
					<dim>1</dim>
					<dim>1024</dim>
				</port>
			</input>
			<output>
				<port id="1" precision="FP32">
					<dim>1</dim>
					<dim>1</dim>
					<dim>1024</dim>
				</port>
			</output>
		</layer>
		<layer id="356" name="Multiply_844" type="Multiply" version="opset1">
			<data auto_broadcast="numpy" />
			<input>
				<port id="0" precision="FP32">
					<dim>42</dim>
					<dim>257</dim>
					<dim>1024</dim>
				</port>
				<port id="1" precision="FP32">
					<dim>1</dim>
					<dim>1</dim>
					<dim>1024</dim>
				</port>
			</input>
			<output>
				<port id="2" precision="FP32">
					<dim>42</dim>
					<dim>257</dim>
					<dim>1024</dim>
				</port>
			</output>
		</layer>
		<layer id="357" name="Constant_12032_compressed" type="Const" version="opset1">
			<data element_type="f16" shape="1, 1, 1024" offset="111018206" size="2048" />
			<output>
				<port id="0" precision="FP16">
					<dim>1</dim>
					<dim>1</dim>
					<dim>1024</dim>
				</port>
			</output>
		</layer>
		<layer id="358" name="Constant_12032" type="Convert" version="opset1">
			<data destination_type="f32" />
			<rt_info>
				<attribute name="decompression" version="0" />
			</rt_info>
			<input>
				<port id="0" precision="FP16">
					<dim>1</dim>
					<dim>1</dim>
					<dim>1024</dim>
				</port>
			</input>
			<output>
				<port id="1" precision="FP32">
					<dim>1</dim>
					<dim>1</dim>
					<dim>1024</dim>
				</port>
			</output>
		</layer>
		<layer id="359" name="/blocks.4/norm2/LayerNormalization" type="Add" version="opset1">
			<data auto_broadcast="numpy" />
			<input>
				<port id="0" precision="FP32">
					<dim>42</dim>
					<dim>257</dim>
					<dim>1024</dim>
				</port>
				<port id="1" precision="FP32">
					<dim>1</dim>
					<dim>1</dim>
					<dim>1024</dim>
				</port>
			</input>
			<output>
				<port id="2" precision="FP32" names="/blocks.4/norm2/LayerNormalization_output_0">
					<dim>42</dim>
					<dim>257</dim>
					<dim>1024</dim>
				</port>
			</output>
		</layer>
		<layer id="360" name="Transpose_8066_compressed" type="Const" version="opset1">
			<data element_type="f16" shape="4096, 1024" offset="111020254" size="8388608" />
			<output>
				<port id="0" precision="FP16">
					<dim>4096</dim>
					<dim>1024</dim>
				</port>
			</output>
		</layer>
		<layer id="361" name="Transpose_8066" type="Convert" version="opset1">
			<data destination_type="f32" />
			<rt_info>
				<attribute name="decompression" version="0" />
			</rt_info>
			<input>
				<port id="0" precision="FP16">
					<dim>4096</dim>
					<dim>1024</dim>
				</port>
			</input>
			<output>
				<port id="1" precision="FP32">
					<dim>4096</dim>
					<dim>1024</dim>
				</port>
			</output>
		</layer>
		<layer id="362" name="/blocks.4/mlp/fc1/MatMul" type="MatMul" version="opset1">
			<data transpose_a="false" transpose_b="true" />
			<input>
				<port id="0" precision="FP32">
					<dim>42</dim>
					<dim>257</dim>
					<dim>1024</dim>
				</port>
				<port id="1" precision="FP32">
					<dim>4096</dim>
					<dim>1024</dim>
				</port>
			</input>
			<output>
				<port id="2" precision="FP32" names="/blocks.4/mlp/fc1/MatMul_output_0">
					<dim>42</dim>
					<dim>257</dim>
					<dim>4096</dim>
				</port>
			</output>
		</layer>
		<layer id="363" name="/blocks.4/mlp/fc1/Add" type="Add" version="opset1">
			<data auto_broadcast="numpy" />
			<input>
				<port id="0" precision="FP32">
					<dim>1</dim>
					<dim>1</dim>
					<dim>4096</dim>
				</port>
				<port id="1" precision="FP32">
					<dim>42</dim>
					<dim>257</dim>
					<dim>4096</dim>
				</port>
			</input>
			<output>
				<port id="2" precision="FP32" names="/blocks.4/mlp/fc1/Add_output_0">
					<dim>42</dim>
					<dim>257</dim>
…
		<edge from-layer="1082" from-port="1" to-layer="1083" to-port="1" />
		<edge from-layer="1083" from-port="2" to-layer="1084" to-port="1" />
		<edge from-layer="1084" from-port="2" to-layer="1130" to-port="0" />
		<edge from-layer="1084" from-port="2" to-layer="1088" to-port="0" />
		<edge from-layer="1085" from-port="0" to-layer="1086" to-port="0" />
		<edge from-layer="1086" from-port="1" to-layer="1098" to-port="0" />
		<edge from-layer="1087" from-port="0" to-layer="1088" to-port="1" />
		<edge from-layer="1088" from-port="2" to-layer="1091" to-port="0" />
		<edge from-layer="1089" from-port="0" to-layer="1090" to-port="0" />
		<edge from-layer="1090" from-port="1" to-layer="1091" to-port="1" />
		<edge from-layer="1091" from-port="2" to-layer="1094" to-port="0" />
		<edge from-layer="1092" from-port="0" to-layer="1093" to-port="0" />
		<edge from-layer="1093" from-port="1" to-layer="1094" to-port="1" />
		<edge from-layer="1094" from-port="2" to-layer="1097" to-port="0" />
		<edge from-layer="1095" from-port="0" to-layer="1096" to-port="0" />
		<edge from-layer="1096" from-port="1" to-layer="1097" to-port="1" />
		<edge from-layer="1097" from-port="2" to-layer="1098" to-port="1" />
		<edge from-layer="1098" from-port="2" to-layer="1100" to-port="0" />
		<edge from-layer="1099" from-port="0" to-layer="1100" to-port="1" />
		<edge from-layer="1100" from-port="2" to-layer="1102" to-port="0" />
		<edge from-layer="1101" from-port="0" to-layer="1102" to-port="1" />
		<edge from-layer="1102" from-port="2" to-layer="1111" to-port="0" />
		<edge from-layer="1102" from-port="2" to-layer="1109" to-port="0" />
		<edge from-layer="1102" from-port="2" to-layer="1104" to-port="0" />
		<edge from-layer="1103" from-port="0" to-layer="1104" to-port="2" />
		<edge from-layer="1104" from-port="3" to-layer="1107" to-port="0" />
		<edge from-layer="1105" from-port="0" to-layer="1106" to-port="0" />
		<edge from-layer="1106" from-port="1" to-layer="1107" to-port="1" />
		<edge from-layer="1107" from-port="2" to-layer="1116" to-port="0" />
		<edge from-layer="1108" from-port="0" to-layer="1109" to-port="2" />
		<edge from-layer="1109" from-port="3" to-layer="1116" to-port="1" />
		<edge from-layer="1110" from-port="0" to-layer="1111" to-port="2" />
		<edge from-layer="1111" from-port="3" to-layer="1116" to-port="2" />
		<edge from-layer="1112" from-port="0" to-layer="1113" to-port="0" />
		<edge from-layer="1113" from-port="1" to-layer="1116" to-port="3" />
		<edge from-layer="1114" from-port="0" to-layer="1115" to-port="0" />
		<edge from-layer="1115" from-port="1" to-layer="1116" to-port="4" />
		<edge from-layer="1116" from-port="5" to-layer="1118" to-port="0" />
		<edge from-layer="1117" from-port="0" to-layer="1118" to-port="1" />
		<edge from-layer="1118" from-port="2" to-layer="1120" to-port="0" />
		<edge from-layer="1119" from-port="0" to-layer="1120" to-port="1" />
		<edge from-layer="1120" from-port="2" to-layer="1123" to-port="0" />
		<edge from-layer="1121" from-port="0" to-layer="1122" to-port="0" />
		<edge from-layer="1122" from-port="1" to-layer="1123" to-port="1" />
		<edge from-layer="1123" from-port="2" to-layer="1126" to-port="0" />
		<edge from-layer="1124" from-port="0" to-layer="1125" to-port="0" />
		<edge from-layer="1125" from-port="1" to-layer="1126" to-port="1" />
		<edge from-layer="1126" from-port="2" to-layer="1129" to-port="0" />
		<edge from-layer="1127" from-port="0" to-layer="1128" to-port="0" />
		<edge from-layer="1128" from-port="1" to-layer="1129" to-port="1" />
		<edge from-layer="1129" from-port="2" to-layer="1130" to-port="1" />
		<edge from-layer="1130" from-port="2" to-layer="1155" to-port="0" />
		<edge from-layer="1130" from-port="2" to-layer="1134" to-port="0" />
		<edge from-layer="1131" from-port="0" to-layer="1132" to-port="0" />
		<edge from-layer="1132" from-port="1" to-layer="1144" to-port="0" />
		<edge from-layer="1133" from-port="0" to-layer="1134" to-port="1" />
		<edge from-layer="1134" from-port="2" to-layer="1137" to-port="0" />
		<edge from-layer="1135" from-port="0" to-layer="1136" to-port="0" />
		<edge from-layer="1136" from-port="1" to-layer="1137" to-port="1" />
		<edge from-layer="1137" from-port="2" to-layer="1140" to-port="0" />
		<edge from-layer="1138" from-port="0" to-layer="1139" to-port="0" />
		<edge from-layer="1139" from-port="1" to-layer="1140" to-port="1" />
		<edge from-layer="1140" from-port="2" to-layer="1143" to-port="0" />
		<edge from-layer="1141" from-port="0" to-layer="1142" to-port="0" />
		<edge from-layer="1142" from-port="1" to-layer="1143" to-port="1" />
		<edge from-layer="1143" from-port="2" to-layer="1144" to-port="1" />
		<edge from-layer="1144" from-port="2" to-layer="1145" to-port="0" />
		<edge from-layer="1145" from-port="1" to-layer="1148" to-port="0" />
		<edge from-layer="1146" from-port="0" to-layer="1147" to-port="0" />
		<edge from-layer="1147" from-port="1" to-layer="1148" to-port="1" />
		<edge from-layer="1148" from-port="2" to-layer="1151" to-port="0" />
		<edge from-layer="1149" from-port="0" to-layer="1150" to-port="0" />
		<edge from-layer="1150" from-port="1" to-layer="1151" to-port="1" />
		<edge from-layer="1151" from-port="2" to-layer="1154" to-port="0" />
		<edge from-layer="1152" from-port="0" to-layer="1153" to-port="0" />
		<edge from-layer="1153" from-port="1" to-layer="1154" to-port="1" />
		<edge from-layer="1154" from-port="2" to-layer="1155" to-port="1" />
		<edge from-layer="1155" from-port="2" to-layer="1201" to-port="0" />
		<edge from-layer="1155" from-port="2" to-layer="1159" to-port="0" />
		<edge from-layer="1156" from-port="0" to-layer="1157" to-port="0" />
		<edge from-layer="1157" from-port="1" to-layer="1169" to-port="0" />
		<edge from-layer="1158" from-port="0" to-layer="1159" to-port="1" />
		<edge from-layer="1159" from-port="2" to-layer="1162" to-port="0" />
		<edge from-layer="1160" from-port="0" to-layer="1161" to-port="0" />
		<edge from-layer="1161" from-port="1" to-layer="1162" to-port="1" />
		<edge from-layer="1162" from-port="2" to-layer="1165" to-port="0" />
		<edge from-layer="1163" from-port="0" to-layer="1164" to-port="0" />
		<edge from-layer="1164" from-port="1" to-layer="1165" to-port="1" />
		<edge from-layer="1165" from-port="2" to-layer="1168" to-port="0" />
		<edge from-layer="1166" from-port="0" to-layer="1167" to-port="0" />
		<edge from-layer="1167" from-port="1" to-layer="1168" to-port="1" />
		<edge from-layer="1168" from-port="2" to-layer="1169" to-port="1" />
		<edge from-layer="1169" from-port="2" to-layer="1171" to-port="0" />
		<edge from-layer="1170" from-port="0" to-layer="1171" to-port="1" />
		<edge from-layer="1171" from-port="2" to-layer="1173" to-port="0" />
		<edge from-layer="1172" from-port="0" to-layer="1173" to-port="1" />
		<edge from-layer="1173" from-port="2" to-layer="1175" to-port="0" />
		<edge from-layer="1173" from-port="2" to-layer="1180" to-port="0" />
		<edge from-layer="1173" from-port="2" to-layer="1182" to-port="0" />
		<edge from-layer="1174" from-port="0" to-layer="1175" to-port="2" />
		<edge from-layer="1175" from-port="3" to-layer="1178" to-port="0" />
		<edge from-layer="1176" from-port="0" to-layer="1177" to-port="0" />
		<edge from-layer="1177" from-port="1" to-layer="1178" to-port="1" />
		<edge from-layer="1178" from-port="2" to-layer="1187" to-port="0" />
		<edge from-layer="1179" from-port="0" to-layer="1180" to-port="2" />
		<edge from-layer="1180" from-port="3" to-layer="1187" to-port="1" />
		<edge from-layer="1181" from-port="0" to-layer="1182" to-port="2" />
		<edge from-layer="1182" from-port="3" to-layer="1187" to-port="2" />
		<edge from-layer="1183" from-port="0" to-layer="1184" to-port="0" />
		<edge from-layer="1184" from-port="1" to-layer="1187" to-port="3" />
		<edge from-layer="1185" from-port="0" to-layer="1186" to-port="0" />
		<edge from-layer="1186" from-port="1" to-layer="1187" to-port="4" />
		<edge from-layer="1187" from-port="5" to-layer="1189" to-port="0" />
		<edge from-layer="1188" from-port="0" to-layer="1189" to-port="1" />
		<edge from-layer="1189" from-port="2" to-layer="1191" to-port="0" />
		<edge from-layer="1190" from-port="0" to-layer="1191" to-port="1" />
		<edge from-layer="1191" from-port="2" to-layer="1194" to-port="0" />
		<edge from-layer="1192" from-port="0" to-layer="1193" to-port="0" />
		<edge from-layer="1193" from-port="1" to-layer="1194" to-port="1" />
		<edge from-layer="1194" from-port="2" to-layer="1197" to-port="0" />
		<edge from-layer="1195" from-port="0" to-layer="1196" to-port="0" />
		<edge from-layer="1196" from-port="1" to-layer="1197" to-port="1" />
		<edge from-layer="1197" from-port="2" to-layer="1200" to-port="0" />
		<edge from-layer="1198" from-port="0" to-layer="1199" to-port="0" />
		<edge from-layer="1199" from-port="1" to-layer="1200" to-port="1" />
		<edge from-layer="1200" from-port="2" to-layer="1201" to-port="1" />
		<edge from-layer="1201" from-port="2" to-layer="1226" to-port="0" />
		<edge from-layer="1201" from-port="2" to-layer="1205" to-port="0" />
		<edge from-layer="1202" from-port="0" to-layer="1203" to-port="0" />
		<edge from-layer="1203" from-port="1" to-layer="1215" to-port="0" />
		<edge from-layer="1204" from-port="0" to-layer="1205" to-port="1" />
		<edge from-layer="1205" from-port="2" to-layer="1208" to-port="0" />
		<edge from-layer="1206" from-port="0" to-layer="1207" to-port="0" />
		<edge from-layer="1207" from-port="1" to-layer="1208" to-port="1" />
		<edge from-layer="1208" from-port="2" to-layer="1211" to-port="0" />
		<edge from-layer="1209" from-port="0" to-layer="1210" to-port="0" />
		<edge from-layer="1210" from-port="1" to-layer="1211" to-port="1" />
		<edge from-layer="1211" from-port="2" to-layer="1214" to-port="0" />
		<edge from-layer="1212" from-port="0" to-layer="1213" to-port="0" />
		<edge from-layer="1213" from-port="1" to-layer="1214" to-port="1" />
		<edge from-layer="1214" from-port="2" to-layer="1215" to-port="1" />
		<edge from-layer="1215" from-port="2" to-layer="1216" to-port="0" />
		<edge from-layer="1216" from-port="1" to-layer="1219" to-port="0" />
		<edge from-layer="1217" from-port="0" to-layer="1218" to-port="0" />
		<edge from-layer="1218" from-port="1" to-layer="1219" to-port="1" />
		<edge from-layer="1219" from-port="2" to-layer="1222" to-port="0" />
		<edge from-layer="1220" from-port="0" to-layer="1221" to-port="0" />
		<edge from-layer="1221" from-port="1" to-layer="1222" to-port="1" />
		<edge from-layer="1222" from-port="2" to-layer="1225" to-port="0" />
		<edge from-layer="1223" from-port="0" to-layer="1224" to-port="0" />
		<edge from-layer="1224" from-port="1" to-layer="1225" to-port="1" />
		<edge from-layer="1225" from-port="2" to-layer="1226" to-port="1" />
		<edge from-layer="1226" from-port="2" to-layer="1272" to-port="0" />
		<edge from-layer="1226" from-port="2" to-layer="1230" to-port="0" />
		<edge from-layer="1227" from-port="0" to-layer="1228" to-port="0" />
		<edge from-layer="1228" from-port="1" to-layer="1240" to-port="0" />
		<edge from-layer="1229" from-port="0" to-layer="1230" to-port="1" />
		<edge from-layer="1230" from-port="2" to-layer="1233" to-port="0" />
		<edge from-layer="1231" from-port="0" to-layer="1232" to-port="0" />
		<edge from-layer="1232" from-port="1" to-layer="1233" to-port="1" />
		<edge from-layer="1233" from-port="2" to-layer="1236" to-port="0" />
		<edge from-layer="1234" from-port="0" to-layer="1235" to-port="0" />
		<edge from-layer="1235" from-port="1" to-layer="1236" to-port="1" />
		<edge from-layer="1236" from-port="2" to-layer="1239" to-port="0" />
		<edge from-layer="1237" from-port="0" to-layer="1238" to-port="0" />
		<edge from-layer="1238" from-port="1" to-layer="1239" to-port="1" />
		<edge from-layer="1239" from-port="2" to-layer="1240" to-port="1" />
		<edge from-layer="1240" from-port="2" to-layer="1242" to-port="0" />
		<edge from-layer="1241" from-port="0" to-layer="1242" to-port="1" />
		<edge from-layer="1242" from-port="2" to-layer="1244" to-port="0" />
		<edge from-layer="1243" from-port="0" to-layer="1244" to-port="1" />
		<edge from-layer="1244" from-port="2" to-layer="1253" to-port="0" />
		<edge from-layer="1244" from-port="2" to-layer="1251" to-port="0" />
		<edge from-layer="1244" from-port="2" to-layer="1246" to-port="0" />
		<edge from-layer="1245" from-port="0" to-layer="1246" to-port="2" />
		<edge from-layer="1246" from-port="3" to-layer="1249" to-port="0" />
		<edge from-layer="1247" from-port="0" to-layer="1248" to-port="0" />
		<edge from-layer="1248" from-port="1" to-layer="1249" to-port="1" />
		<edge from-layer="1249" from-port="2" to-layer="1258" to-port="0" />
		<edge from-layer="1250" from-port="0" to-layer="1251" to-port="2" />
		<edge from-layer="1251" from-port="3" to-layer="1258" to-port="1" />
		<edge from-layer="1252" from-port="0" to-layer="1253" to-port="2" />
		<edge from-layer="1253" from-port="3" to-layer="1258" to-port="2" />
		<edge from-layer="1254" from-port="0" to-layer="1255" to-port="0" />
		<edge from-layer="1255" from-port="1" to-layer="1258" to-port="3" />
		<edge from-layer="1256" from-port="0" to-layer="1257" to-port="0" />
		<edge from-layer="1257" from-port="1" to-layer="1258" to-port="4" />
		<edge from-layer="1258" from-port="5" to-layer="1260" to-port="0" />
		<edge from-layer="1259" from-port="0" to-layer="1260" to-port="1" />
		<edge from-layer="1260" from-port="2" to-layer="1262" to-port="0" />
		<edge from-layer="1261" from-port="0" to-layer="1262" to-port="1" />
		<edge from-layer="1262" from-port="2" to-layer="1265" to-port="0" />
		<edge from-layer="1263" from-port="0" to-layer="1264" to-port="0" />
		<edge from-layer="1264" from-port="1" to-layer="1265" to-port="1" />
		<edge from-layer="1265" from-port="2" to-layer="1268" to-port="0" />
		<edge from-layer="1266" from-port="0" to-layer="1267" to-port="0" />
		<edge from-layer="1267" from-port="1" to-layer="1268" to-port="1" />
		<edge from-layer="1268" from-port="2" to-layer="1271" to-port="0" />
		<edge from-layer="1269" from-port="0" to-layer="1270" to-port="0" />
		<edge from-layer="1270" from-port="1" to-layer="1271" to-port="1" />
		<edge from-layer="1271" from-port="2" to-layer="1272" to-port="1" />
		<edge from-layer="1272" from-port="2" to-layer="1297" to-port="0" />
		<edge from-layer="1272" from-port="2" to-layer="1276" to-port="0" />
		<edge from-layer="1273" from-port="0" to-layer="1274" to-port="0" />
		<edge from-layer="1274" from-port="1" to-layer="1286" to-port="0" />
		<edge from-layer="1275" from-port="0" to-layer="1276" to-port="1" />
		<edge from-layer="1276" from-port="2" to-layer="1279" to-port="0" />
		<edge from-layer="1277" from-port="0" to-layer="1278" to-port="0" />
		<edge from-layer="1278" from-port="1" to-layer="1279" to-port="1" />
		<edge from-layer="1279" from-port="2" to-layer="1282" to-port="0" />
		<edge from-layer="1280" from-port="0" to-layer="1281" to-port="0" />
		<edge from-layer="1281" from-port="1" to-layer="1282" to-port="1" />
		<edge from-layer="1282" from-port="2" to-layer="1285" to-port="0" />
		<edge from-layer="1283" from-port="0" to-layer="1284" to-port="0" />
		<edge from-layer="1284" from-port="1" to-layer="1285" to-port="1" />
		<edge from-layer="1285" from-port="2" to-layer="1286" to-port="1" />
		<edge from-layer="1286" from-port="2" to-layer="1287" to-port="0" />
		<edge from-layer="1287" from-port="1" to-layer="1290" to-port="0" />
		<edge from-layer="1288" from-port="0" to-layer="1289" to-port="0" />
		<edge from-layer="1289" from-port="1" to-layer="1290" to-port="1" />
		<edge from-layer="1290" from-port="2" to-layer="1293" to-port="0" />
		<edge from-layer="1291" from-port="0" to-layer="1292" to-port="0" />
		<edge from-layer="1292" from-port="1" to-layer="1293" to-port="1" />
		<edge from-layer="1293" from-port="2" to-layer="1296" to-port="0" />
		<edge from-layer="1294" from-port="0" to-layer="1295" to-port="0" />
		<edge from-layer="1295" from-port="1" to-layer="1296" to-port="1" />
		<edge from-layer="1296" from-port="2" to-layer="1297" to-port="1" />
		<edge from-layer="1297" from-port="2" to-layer="1343" to-port="0" />
		<edge from-layer="1297" from-port="2" to-layer="1301" to-port="0" />
		<edge from-layer="1298" from-port="0" to-layer="1299" to-port="0" />
		<edge from-layer="1299" from-port="1" to-layer="1311" to-port="0" />
		<edge from-layer="1300" from-port="0" to-layer="1301" to-port="1" />
		<edge from-layer="1301" from-port="2" to-layer="1304" to-port="0" />
		<edge from-layer="1302" from-port="0" to-layer="1303" to-port="0" />
		<edge from-layer="1303" from-port="1" to-layer="1304" to-port="1" />
		<edge from-layer="1304" from-port="2" to-layer="1307" to-port="0" />
		<edge from-layer="1305" from-port="0" to-layer="1306" to-port="0" />
		<edge from-layer="1306" from-port="1" to-layer="1307" to-port="1" />
		<edge from-layer="1307" from-port="2" to-layer="1310" to-port="0" />
		<edge from-layer="1308" from-port="0" to-layer="1309" to-port="0" />
		<edge from-layer="1309" from-port="1" to-layer="1310" to-port="1" />
		<edge from-layer="1310" from-port="2" to-layer="1311" to-port="1" />
		<edge from-layer="1311" from-port="2" to-layer="1313" to-port="0" />
		<edge from-layer="1312" from-port="0" to-layer="1313" to-port="1" />
		<edge from-layer="1313" from-port="2" to-layer="1315" to-port="0" />
		<edge from-layer="1314" from-port="0" to-layer="1315" to-port="1" />
		<edge from-layer="1315" from-port="2" to-layer="1324" to-port="0" />
		<edge from-layer="1315" from-port="2" to-layer="1322" to-port="0" />
		<edge from-layer="1315" from-port="2" to-layer="1317" to-port="0" />
		<edge from-layer="1316" from-port="0" to-layer="1317" to-port="2" />
		<edge from-layer="1317" from-port="3" to-layer="1320" to-port="0" />
		<edge from-layer="1318" from-port="0" to-layer="1319" to-port="0" />
		<edge from-layer="1319" from-port="1" to-layer="1320" to-port="1" />
		<edge from-layer="1320" from-port="2" to-layer="1329" to-port="0" />
		<edge from-layer="1321" from-port="0" to-layer="1322" to-port="2" />
		<edge from-layer="1322" from-port="3" to-layer="1329" to-port="1" />
		<edge from-layer="1323" from-port="0" to-layer="1324" to-port="2" />
		<edge from-layer="1324" from-port="3" to-layer="1329" to-port="2" />
		<edge from-layer="1325" from-port="0" to-layer="1326" to-port="0" />
		<edge from-layer="1326" from-port="1" to-layer="1329" to-port="3" />
		<edge from-layer="1327" from-port="0" to-layer="1328" to-port="0" />
		<edge from-layer="1328" from-port="1" to-layer="1329" to-port="4" />
		<edge from-layer="1329" from-port="5" to-layer="1331" to-port="0" />
		<edge from-layer="1330" from-port="0" to-layer="1331" to-port="1" />
		<edge from-layer="1331" from-port="2" to-layer="1333" to-port="0" />
		<edge from-layer="1332" from-port="0" to-layer="1333" to-port="1" />
		<edge from-layer="1333" from-port="2" to-layer="1336" to-port="0" />
		<edge from-layer="1334" from-port="0" to-layer="1335" to-port="0" />
		<edge from-layer="1335" from-port="1" to-layer="1336" to-port="1" />
		<edge from-layer="1336" from-port="2" to-layer="1339" to-port="0" />
		<edge from-layer="1337" from-port="0" to-layer="1338" to-port="0" />
		<edge from-layer="1338" from-port="1" to-layer="1339" to-port="1" />
		<edge from-layer="1339" from-port="2" to-layer="1342" to-port="0" />
		<edge from-layer="1340" from-port="0" to-layer="1341" to-port="0" />
		<edge from-layer="1341" from-port="1" to-layer="1342" to-port="1" />
		<edge from-layer="1342" from-port="2" to-layer="1343" to-port="1" />
		<edge from-layer="1343" from-port="2" to-layer="1347" to-port="0" />
		<edge from-layer="1343" from-port="2" to-layer="1368" to-port="0" />
		<edge from-layer="1344" from-port="0" to-layer="1345" to-port="0" />
		<edge from-layer="1345" from-port="1" to-layer="1357" to-port="0" />
		<edge from-layer="1346" from-port="0" to-layer="1347" to-port="1" />
		<edge from-layer="1347" from-port="2" to-layer="1350" to-port="0" />
		<edge from-layer="1348" from-port="0" to-layer="1349" to-port="0" />
		<edge from-layer="1349" from-port="1" to-layer="1350" to-port="1" />
		<edge from-layer="1350" from-port="2" to-layer="1353" to-port="0" />
		<edge from-layer="1351" from-port="0" to-layer="1352" to-port="0" />
		<edge from-layer="1352" from-port="1" to-layer="1353" to-port="1" />
		<edge from-layer="1353" from-port="2" to-layer="1356" to-port="0" />
		<edge from-layer="1354" from-port="0" to-layer="1355" to-port="0" />
		<edge from-layer="1355" from-port="1" to-layer="1356" to-port="1" />
		<edge from-layer="1356" from-port="2" to-layer="1357" to-port="1" />
		<edge from-layer="1357" from-port="2" to-layer="1358" to-port="0" />
		<edge from-layer="1358" from-port="1" to-layer="1361" to-port="0" />
		<edge from-layer="1359" from-port="0" to-layer="1360" to-port="0" />
		<edge from-layer="1360" from-port="1" to-layer="1361" to-port="1" />
		<edge from-layer="1361" from-port="2" to-layer="1364" to-port="0" />
		<edge from-layer="1362" from-port="0" to-layer="1363" to-port="0" />
		<edge from-layer="1363" from-port="1" to-layer="1364" to-port="1" />
		<edge from-layer="1364" from-port="2" to-layer="1367" to-port="0" />
		<edge from-layer="1365" from-port="0" to-layer="1366" to-port="0" />
		<edge from-layer="1366" from-port="1" to-layer="1367" to-port="1" />
		<edge from-layer="1367" from-port="2" to-layer="1368" to-port="1" />
		<edge from-layer="1368" from-port="2" to-layer="1414" to-port="0" />
		<edge from-layer="1368" from-port="2" to-layer="1372" to-port="0" />
		<edge from-layer="1369" from-port="0" to-layer="1370" to-port="0" />
		<edge from-layer="1370" from-port="1" to-layer="1382" to-port="0" />
		<edge from-layer="1371" from-port="0" to-layer="1372" to-port="1" />
		<edge from-layer="1372" from-port="2" to-layer="1375" to-port="0" />
		<edge from-layer="1373" from-port="0" to-layer="1374" to-port="0" />
		<edge from-layer="1374" from-port="1" to-layer="1375" to-port="1" />
		<edge from-layer="1375" from-port="2" to-layer="1378" to-port="0" />
		<edge from-layer="1376" from-port="0" to-layer="1377" to-port="0" />
		<edge from-layer="1377" from-port="1" to-layer="1378" to-port="1" />
		<edge from-layer="1378" from-port="2" to-layer="1381" to-port="0" />
		<edge from-layer="1379" from-port="0" to-layer="1380" to-port="0" />
		<edge from-layer="1380" from-port="1" to-layer="1381" to-port="1" />
		<edge from-layer="1381" from-port="2" to-layer="1382" to-port="1" />
		<edge from-layer="1382" from-port="2" to-layer="1384" to-port="0" />
		<edge from-layer="1383" from-port="0" to-layer="1384" to-port="1" />
		<edge from-layer="1384" from-port="2" to-layer="1386" to-port="0" />
		<edge from-layer="1385" from-port="0" to-layer="1386" to-port="1" />
		<edge from-layer="1386" from-port="2" to-layer="1388" to-port="0" />
		<edge from-layer="1386" from-port="2" to-layer="1395" to-port="0" />
		<edge from-layer="1386" from-port="2" to-layer="1393" to-port="0" />
		<edge from-layer="1387" from-port="0" to-layer="1388" to-port="2" />
		<edge from-layer="1388" from-port="3" to-layer="1391" to-port="0" />
		<edge from-layer="1389" from-port="0" to-layer="1390" to-port="0" />
		<edge from-layer="1390" from-port="1" to-layer="1391" to-port="1" />
		<edge from-layer="1391" from-port="2" to-layer="1400" to-port="0" />
		<edge from-layer="1392" from-port="0" to-layer="1393" to-port="2" />
		<edge from-layer="1393" from-port="3" to-layer="1400" to-port="1" />
		<edge from-layer="1394" from-port="0" to-layer="1395" to-port="2" />
		<edge from-layer="1395" from-port="3" to-layer="1400" to-port="2" />
		<edge from-layer="1396" from-port="0" to-layer="1397" to-port="0" />
		<edge from-layer="1397" from-port="1" to-layer="1400" to-port="3" />
		<edge from-layer="1398" from-port="0" to-layer="1399" to-port="0" />
		<edge from-layer="1399" from-port="1" to-layer="1400" to-port="4" />
		<edge from-layer="1400" from-port="5" to-layer="1402" to-port="0" />
		<edge from-layer="1401" from-port="0" to-layer="1402" to-port="1" />
		<edge from-layer="1402" from-port="2" to-layer="1404" to-port="0" />
		<edge from-layer="1403" from-port="0" to-layer="1404" to-port="1" />
		<edge from-layer="1404" from-port="2" to-layer="1407" to-port="0" />
		<edge from-layer="1405" from-port="0" to-layer="1406" to-port="0" />
		<edge from-layer="1406" from-port="1" to-layer="1407" to-port="1" />
		<edge from-layer="1407" from-port="2" to-layer="1410" to-port="0" />
		<edge from-layer="1408" from-port="0" to-layer="1409" to-port="0" />
		<edge from-layer="1409" from-port="1" to-layer="1410" to-port="1" />
		<edge from-layer="1410" from-port="2" to-layer="1413" to-port="0" />
		<edge from-layer="1411" from-port="0" to-layer="1412" to-port="0" />
		<edge from-layer="1412" from-port="1" to-layer="1413" to-port="1" />
		<edge from-layer="1413" from-port="2" to-layer="1414" to-port="1" />
		<edge from-layer="1414" from-port="2" to-layer="1418" to-port="0" />
		<edge from-layer="1414" from-port="2" to-layer="1439" to-port="0" />
		<edge from-layer="1415" from-port="0" to-layer="1416" to-port="0" />
		<edge from-layer="1416" from-port="1" to-layer="1428" to-port="0" />
		<edge from-layer="1417" from-port="0" to-layer="1418" to-port="1" />
		<edge from-layer="1418" from-port="2" to-layer="1421" to-port="0" />
		<edge from-layer="1419" from-port="0" to-layer="1420" to-port="0" />
		<edge from-layer="1420" from-port="1" to-layer="1421" to-port="1" />
		<edge from-layer="1421" from-port="2" to-layer="1424" to-port="0" />
		<edge from-layer="1422" from-port="0" to-layer="1423" to-port="0" />
		<edge from-layer="1423" from-port="1" to-layer="1424" to-port="1" />
		<edge from-layer="1424" from-port="2" to-layer="1427" to-port="0" />
		<edge from-layer="1425" from-port="0" to-layer="1426" to-port="0" />
		<edge from-layer="1426" from-port="1" to-layer="1427" to-port="1" />
		<edge from-layer="1427" from-port="2" to-layer="1428" to-port="1" />
		<edge from-layer="1428" from-port="2" to-layer="1429" to-port="0" />
		<edge from-layer="1429" from-port="1" to-layer="1432" to-port="0" />
		<edge from-layer="1430" from-port="0" to-layer="1431" to-port="0" />
		<edge from-layer="1431" from-port="1" to-layer="1432" to-port="1" />
		<edge from-layer="1432" from-port="2" to-layer="1435" to-port="0" />
		<edge from-layer="1433" from-port="0" to-layer="1434" to-port="0" />
		<edge from-layer="1434" from-port="1" to-layer="1435" to-port="1" />
		<edge from-layer="1435" from-port="2" to-layer="1438" to-port="0" />
		<edge from-layer="1436" from-port="0" to-layer="1437" to-port="0" />
		<edge from-layer="1437" from-port="1" to-layer="1438" to-port="1" />
		<edge from-layer="1438" from-port="2" to-layer="1439" to-port="1" />
		<edge from-layer="1439" from-port="2" to-layer="1485" to-port="0" />
		<edge from-layer="1439" from-port="2" to-layer="1443" to-port="0" />
		<edge from-layer="1440" from-port="0" to-layer="1441" to-port="0" />
		<edge from-layer="1441" from-port="1" to-layer="1453" to-port="0" />
		<edge from-layer="1442" from-port="0" to-layer="1443" to-port="1" />
		<edge from-layer="1443" from-port="2" to-layer="1446" to-port="0" />
		<edge from-layer="1444" from-port="0" to-layer="1445" to-port="0" />
		<edge from-layer="1445" from-port="1" to-layer="1446" to-port="1" />
		<edge from-layer="1446" from-port="2" to-layer="1449" to-port="0" />
		<edge from-layer="1447" from-port="0" to-layer="1448" to-port="0" />
		<edge from-layer="1448" from-port="1" to-layer="1449" to-port="1" />
		<edge from-layer="1449" from-port="2" to-layer="1452" to-port="0" />
		<edge from-layer="1450" from-port="0" to-layer="1451" to-port="0" />
		<edge from-layer="1451" from-port="1" to-layer="1452" to-port="1" />
		<edge from-layer="1452" from-port="2" to-layer="1453" to-port="1" />
		<edge from-layer="1453" from-port="2" to-layer="1455" to-port="0" />
		<edge from-layer="1454" from-port="0" to-layer="1455" to-port="1" />
		<edge from-layer="1455" from-port="2" to-layer="1457" to-port="0" />
		<edge from-layer="1456" from-port="0" to-layer="1457" to-port="1" />
		<edge from-layer="1457" from-port="2" to-layer="1466" to-port="0" />
		<edge from-layer="1457" from-port="2" to-layer="1459" to-port="0" />
		<edge from-layer="1457" from-port="2" to-layer="1464" to-port="0" />
		<edge from-layer="1458" from-port="0" to-layer="1459" to-port="2" />
		<edge from-layer="1459" from-port="3" to-layer="1462" to-port="0" />
		<edge from-layer="1460" from-port="0" to-layer="1461" to-port="0" />
		<edge from-layer="1461" from-port="1" to-layer="1462" to-port="1" />
		<edge from-layer="1462" from-port="2" to-layer="1471" to-port="0" />
		<edge from-layer="1463" from-port="0" to-layer="1464" to-port="2" />
		<edge from-layer="1464" from-port="3" to-layer="1471" to-port="1" />
		<edge from-layer="1465" from-port="0" to-layer="1466" to-port="2" />
		<edge from-layer="1466" from-port="3" to-layer="1471" to-port="2" />
		<edge from-layer="1467" from-port="0" to-layer="1468" to-port="0" />
		<edge from-layer="1468" from-port="1" to-layer="1471" to-port="3" />
		<edge from-layer="1469" from-port="0" to-layer="1470" to-port="0" />
		<edge from-layer="1470" from-port="1" to-layer="1471" to-port="4" />
		<edge from-layer="1471" from-port="5" to-layer="1473" to-port="0" />
		<edge from-layer="1472" from-port="0" to-layer="1473" to-port="1" />
		<edge from-layer="1473" from-port="2" to-layer="1475" to-port="0" />
		<edge from-layer="1474" from-port="0" to-layer="1475" to-port="1" />
		<edge from-layer="1475" from-port="2" to-layer="1478" to-port="0" />
		<edge from-layer="1476" from-port="0" to-layer="1477" to-port="0" />
		<edge from-layer="1477" from-port="1" to-layer="1478" to-port="1" />
		<edge from-layer="1478" from-port="2" to-layer="1481" to-port="0" />
		<edge from-layer="1479" from-port="0" to-layer="1480" to-port="0" />
		<edge from-layer="1480" from-port="1" to-layer="1481" to-port="1" />
		<edge from-layer="1481" from-port="2" to-layer="1484" to-port="0" />
		<edge from-layer="1482" from-port="0" to-layer="1483" to-port="0" />
		<edge from-layer="1483" from-port="1" to-layer="1484" to-port="1" />
		<edge from-layer="1484" from-port="2" to-layer="1485" to-port="1" />
		<edge from-layer="1485" from-port="2" to-layer="1510" to-port="0" />
		<edge from-layer="1485" from-port="2" to-layer="1489" to-port="0" />
		<edge from-layer="1486" from-port="0" to-layer="1487" to-port="0" />
		<edge from-layer="1487" from-port="1" to-layer="1499" to-port="0" />
		<edge from-layer="1488" from-port="0" to-layer="1489" to-port="1" />
		<edge from-layer="1489" from-port="2" to-layer="1492" to-port="0" />
		<edge from-layer="1490" from-port="0" to-layer="1491" to-port="0" />
		<edge from-layer="1491" from-port="1" to-layer="1492" to-port="1" />
		<edge from-layer="1492" from-port="2" to-layer="1495" to-port="0" />
		<edge from-layer="1493" from-port="0" to-layer="1494" to-port="0" />
		<edge from-layer="1494" from-port="1" to-layer="1495" to-port="1" />
		<edge from-layer="1495" from-port="2" to-layer="1498" to-port="0" />
		<edge from-layer="1496" from-port="0" to-layer="1497" to-port="0" />
		<edge from-layer="1497" from-port="1" to-layer="1498" to-port="1" />
		<edge from-layer="1498" from-port="2" to-layer="1499" to-port="1" />
		<edge from-layer="1499" from-port="2" to-layer="1500" to-port="0" />
		<edge from-layer="1500" from-port="1" to-layer="1503" to-port="0" />
		<edge from-layer="1501" from-port="0" to-layer="1502" to-port="0" />
		<edge from-layer="1502" from-port="1" to-layer="1503" to-port="1" />
		<edge from-layer="1503" from-port="2" to-layer="1506" to-port="0" />
		<edge from-layer="1504" from-port="0" to-layer="1505" to-port="0" />
		<edge from-layer="1505" from-port="1" to-layer="1506" to-port="1" />
		<edge from-layer="1506" from-port="2" to-layer="1509" to-port="0" />
		<edge from-layer="1507" from-port="0" to-layer="1508" to-port="0" />
		<edge from-layer="1508" from-port="1" to-layer="1509" to-port="1" />
		<edge from-layer="1509" from-port="2" to-layer="1510" to-port="1" />
		<edge from-layer="1510" from-port="2" to-layer="1556" to-port="0" />
		<edge from-layer="1510" from-port="2" to-layer="1514" to-port="0" />
		<edge from-layer="1511" from-port="0" to-layer="1512" to-port="0" />
		<edge from-layer="1512" from-port="1" to-layer="1524" to-port="0" />
		<edge from-layer="1513" from-port="0" to-layer="1514" to-port="1" />
		<edge from-layer="1514" from-port="2" to-layer="1517" to-port="0" />
		<edge from-layer="1515" from-port="0" to-layer="1516" to-port="0" />
		<edge from-layer="1516" from-port="1" to-layer="1517" to-port="1" />
		<edge from-layer="1517" from-port="2" to-layer="1520" to-port="0" />
		<edge from-layer="1518" from-port="0" to-layer="1519" to-port="0" />
		<edge from-layer="1519" from-port="1" to-layer="1520" to-port="1" />
		<edge from-layer="1520" from-port="2" to-layer="1523" to-port="0" />
		<edge from-layer="1521" from-port="0" to-layer="1522" to-port="0" />
		<edge from-layer="1522" from-port="1" to-layer="1523" to-port="1" />
		<edge from-layer="1523" from-port="2" to-layer="1524" to-port="1" />
		<edge from-layer="1524" from-port="2" to-layer="1526" to-port="0" />
		<edge from-layer="1525" from-port="0" to-layer="1526" to-port="1" />
		<edge from-layer="1526" from-port="2" to-layer="1528" to-port="0" />
		<edge from-layer="1527" from-port="0" to-layer="1528" to-port="1" />
		<edge from-layer="1528" from-port="2" to-layer="1537" to-port="0" />
		<edge from-layer="1528" from-port="2" to-layer="1530" to-port="0" />
		<edge from-layer="1528" from-port="2" to-layer="1535" to-port="0" />
		<edge from-layer="1529" from-port="0" to-layer="1530" to-port="2" />
		<edge from-layer="1530" from-port="3" to-layer="1533" to-port="0" />
		<edge from-layer="1531" from-port="0" to-layer="1532" to-port="0" />
		<edge from-layer="1532" from-port="1" to-layer="1533" to-port="1" />
		<edge from-layer="1533" from-port="2" to-layer="1542" to-port="0" />
		<edge from-layer="1534" from-port="0" to-layer="1535" to-port="2" />
		<edge from-layer="1535" from-port="3" to-layer="1542" to-port="1" />
		<edge from-layer="1536" from-port="0" to-layer="1537" to-port="2" />
		<edge from-layer="1537" from-port="3" to-layer="1542" to-port="2" />
		<edge from-layer="1538" from-port="0" to-layer="1539" to-port="0" />
		<edge from-layer="1539" from-port="1" to-layer="1542" to-port="3" />
		<edge from-layer="1540" from-port="0" to-layer="1541" to-port="0" />
		<edge from-layer="1541" from-port="1" to-layer="1542" to-port="4" />
		<edge from-layer="1542" from-port="5" to-layer="1544" to-port="0" />
		<edge from-layer="1543" from-port="0" to-layer="1544" to-port="1" />
		<edge from-layer="1544" from-port="2" to-layer="1546" to-port="0" />
		<edge from-layer="1545" from-port="0" to-layer="1546" to-port="1" />
		<edge from-layer="1546" from-port="2" to-layer="1549" to-port="0" />
		<edge from-layer="1547" from-port="0" to-layer="1548" to-port="0" />
		<edge from-layer="1548" from-port="1" to-layer="1549" to-port="1" />
		<edge from-layer="1549" from-port="2" to-layer="1552" to-port="0" />
		<edge from-layer="1550" from-port="0" to-layer="1551" to-port="0" />
		<edge from-layer="1551" from-port="1" to-layer="1552" to-port="1" />
		<edge from-layer="1552" from-port="2" to-layer="1555" to-port="0" />
		<edge from-layer="1553" from-port="0" to-layer="1554" to-port="0" />
		<edge from-layer="1554" from-port="1" to-layer="1555" to-port="1" />
		<edge from-layer="1555" from-port="2" to-layer="1556" to-port="1" />
		<edge from-layer="1556" from-port="2" to-layer="1560" to-port="0" />
		<edge from-layer="1556" from-port="2" to-layer="1581" to-port="0" />
		<edge from-layer="1557" from-port="0" to-layer="1558" to-port="0" />
		<edge from-layer="1558" from-port="1" to-layer="1570" to-port="0" />
		<edge from-layer="1559" from-port="0" to-layer="1560" to-port="1" />
		<edge from-layer="1560" from-port="2" to-layer="1563" to-port="0" />
		<edge from-layer="1561" from-port="0" to-layer="1562" to-port="0" />
		<edge from-layer="1562" from-port="1" to-layer="1563" to-port="1" />
		<edge from-layer="1563" from-port="2" to-layer="1566" to-port="0" />
		<edge from-layer="1564" from-port="0" to-layer="1565" to-port="0" />
		<edge from-layer="1565" from-port="1" to-layer="1566" to-port="1" />
		<edge from-layer="1566" from-port="2" to-layer="1569" to-port="0" />
		<edge from-layer="1567" from-port="0" to-layer="1568" to-port="0" />
		<edge from-layer="1568" from-port="1" to-layer="1569" to-port="1" />
		<edge from-layer="1569" from-port="2" to-layer="1570" to-port="1" />
		<edge from-layer="1570" from-port="2" to-layer="1571" to-port="0" />
		<edge from-layer="1571" from-port="1" to-layer="1574" to-port="0" />
		<edge from-layer="1572" from-port="0" to-layer="1573" to-port="0" />
		<edge from-layer="1573" from-port="1" to-layer="1574" to-port="1" />
		<edge from-layer="1574" from-port="2" to-layer="1577" to-port="0" />
		<edge from-layer="1575" from-port="0" to-layer="1576" to-port="0" />
		<edge from-layer="1576" from-port="1" to-layer="1577" to-port="1" />
		<edge from-layer="1577" from-port="2" to-layer="1580" to-port="0" />
		<edge from-layer="1578" from-port="0" to-layer="1579" to-port="0" />
		<edge from-layer="1579" from-port="1" to-layer="1580" to-port="1" />
		<edge from-layer="1580" from-port="2" to-layer="1581" to-port="1" />
		<edge from-layer="1581" from-port="2" to-layer="1585" to-port="0" />
		<edge from-layer="1581" from-port="2" to-layer="1627" to-port="0" />
		<edge from-layer="1582" from-port="0" to-layer="1583" to-port="0" />
		<edge from-layer="1583" from-port="1" to-layer="1595" to-port="0" />
		<edge from-layer="1584" from-port="0" to-layer="1585" to-port="1" />
		<edge from-layer="1585" from-port="2" to-layer="1588" to-port="0" />
		<edge from-layer="1586" from-port="0" to-layer="1587" to-port="0" />
		<edge from-layer="1587" from-port="1" to-layer="1588" to-port="1" />
		<edge from-layer="1588" from-port="2" to-layer="1591" to-port="0" />
		<edge from-layer="1589" from-port="0" to-layer="1590" to-port="0" />
		<edge from-layer="1590" from-port="1" to-layer="1591" to-port="1" />
		<edge from-layer="1591" from-port="2" to-layer="1594" to-port="0" />
		<edge from-layer="1592" from-port="0" to-layer="1593" to-port="0" />
		<edge from-layer="1593" from-port="1" to-layer="1594" to-port="1" />
		<edge from-layer="1594" from-port="2" to-layer="1595" to-port="1" />
		<edge from-layer="1595" from-port="2" to-layer="1597" to-port="0" />
		<edge from-layer="1596" from-port="0" to-layer="1597" to-port="1" />
		<edge from-layer="1597" from-port="2" to-layer="1599" to-port="0" />
		<edge from-layer="1598" from-port="0" to-layer="1599" to-port="1" />
		<edge from-layer="1599" from-port="2" to-layer="1601" to-port="0" />
		<edge from-layer="1599" from-port="2" to-layer="1606" to-port="0" />
		<edge from-layer="1599" from-port="2" to-layer="1608" to-port="0" />
		<edge from-layer="1600" from-port="0" to-layer="1601" to-port="2" />
		<edge from-layer="1601" from-port="3" to-layer="1604" to-port="0" />
		<edge from-layer="1602" from-port="0" to-layer="1603" to-port="0" />
		<edge from-layer="1603" from-port="1" to-layer="1604" to-port="1" />
		<edge from-layer="1604" from-port="2" to-layer="1613" to-port="0" />
		<edge from-layer="1605" from-port="0" to-layer="1606" to-port="2" />
		<edge from-layer="1606" from-port="3" to-layer="1613" to-port="1" />
		<edge from-layer="1607" from-port="0" to-layer="1608" to-port="2" />
		<edge from-layer="1608" from-port="3" to-layer="1613" to-port="2" />
		<edge from-layer="1609" from-port="0" to-layer="1610" to-port="0" />
		<edge from-layer="1610" from-port="1" to-layer="1613" to-port="3" />
		<edge from-layer="1611" from-port="0" to-layer="1612" to-port="0" />
		<edge from-layer="1612" from-port="1" to-layer="1613" to-port="4" />
		<edge from-layer="1613" from-port="5" to-layer="1615" to-port="0" />
		<edge from-layer="1614" from-port="0" to-layer="1615" to-port="1" />
		<edge from-layer="1615" from-port="2" to-layer="1617" to-port="0" />
		<edge from-layer="1616" from-port="0" to-layer="1617" to-port="1" />
		<edge from-layer="1617" from-port="2" to-layer="1620" to-port="0" />
		<edge from-layer="1618" from-port="0" to-layer="1619" to-port="0" />
		<edge from-layer="1619" from-port="1" to-layer="1620" to-port="1" />
		<edge from-layer="1620" from-port="2" to-layer="1623" to-port="0" />
		<edge from-layer="1621" from-port="0" to-layer="1622" to-port="0" />
		<edge from-layer="1622" from-port="1" to-layer="1623" to-port="1" />
		<edge from-layer="1623" from-port="2" to-layer="1626" to-port="0" />
		<edge from-layer="1624" from-port="0" to-layer="1625" to-port="0" />
		<edge from-layer="1625" from-port="1" to-layer="1626" to-port="1" />
		<edge from-layer="1626" from-port="2" to-layer="1627" to-port="1" />
		<edge from-layer="1627" from-port="2" to-layer="1652" to-port="0" />
		<edge from-layer="1627" from-port="2" to-layer="1631" to-port="0" />
		<edge from-layer="1628" from-port="0" to-layer="1629" to-port="0" />
		<edge from-layer="1629" from-port="1" to-layer="1641" to-port="0" />
		<edge from-layer="1630" from-port="0" to-layer="1631" to-port="1" />
		<edge from-layer="1631" from-port="2" to-layer="1634" to-port="0" />
		<edge from-layer="1632" from-port="0" to-layer="1633" to-port="0" />
		<edge from-layer="1633" from-port="1" to-layer="1634" to-port="1" />
		<edge from-layer="1634" from-port="2" to-layer="1637" to-port="0" />
		<edge from-layer="1635" from-port="0" to-layer="1636" to-port="0" />
		<edge from-layer="1636" from-port="1" to-layer="1637" to-port="1" />
		<edge from-layer="1637" from-port="2" to-layer="1640" to-port="0" />
		<edge from-layer="1638" from-port="0" to-layer="1639" to-port="0" />
		<edge from-layer="1639" from-port="1" to-layer="1640" to-port="1" />
		<edge from-layer="1640" from-port="2" to-layer="1641" to-port="1" />
		<edge from-layer="1641" from-port="2" to-layer="1642" to-port="0" />
		<edge from-layer="1642" from-port="1" to-layer="1645" to-port="0" />
		<edge from-layer="1643" from-port="0" to-layer="1644" to-port="0" />
		<edge from-layer="1644" from-port="1" to-layer="1645" to-port="1" />
		<edge from-layer="1645" from-port="2" to-layer="1648" to-port="0" />
		<edge from-layer="1646" from-port="0" to-layer="1647" to-port="0" />
		<edge from-layer="1647" from-port="1" to-layer="1648" to-port="1" />
		<edge from-layer="1648" from-port="2" to-layer="1651" to-port="0" />
		<edge from-layer="1649" from-port="0" to-layer="1650" to-port="0" />
		<edge from-layer="1650" from-port="1" to-layer="1651" to-port="1" />
		<edge from-layer="1651" from-port="2" to-layer="1652" to-port="1" />
		<edge from-layer="1652" from-port="2" to-layer="1698" to-port="0" />
		<edge from-layer="1652" from-port="2" to-layer="1656" to-port="0" />
		<edge from-layer="1653" from-port="0" to-layer="1654" to-port="0" />
		<edge from-layer="1654" from-port="1" to-layer="1666" to-port="0" />
		<edge from-layer="1655" from-port="0" to-layer="1656" to-port="1" />
		<edge from-layer="1656" from-port="2" to-layer="1659" to-port="0" />
		<edge from-layer="1657" from-port="0" to-layer="1658" to-port="0" />
		<edge from-layer="1658" from-port="1" to-layer="1659" to-port="1" />
		<edge from-layer="1659" from-port="2" to-layer="1662" to-port="0" />
		<edge from-layer="1660" from-port="0" to-layer="1661" to-port="0" />
		<edge from-layer="1661" from-port="1" to-layer="1662" to-port="1" />
		<edge from-layer="1662" from-port="2" to-layer="1665" to-port="0" />
		<edge from-layer="1663" from-port="0" to-layer="1664" to-port="0" />
		<edge from-layer="1664" from-port="1" to-layer="1665" to-port="1" />
		<edge from-layer="1665" from-port="2" to-layer="1666" to-port="1" />
		<edge from-layer="1666" from-port="2" to-layer="1668" to-port="0" />
		<edge from-layer="1667" from-port="0" to-layer="1668" to-port="1" />
		<edge from-layer="1668" from-port="2" to-layer="1670" to-port="0" />
		<edge from-layer="1669" from-port="0" to-layer="1670" to-port="1" />
		<edge from-layer="1670" from-port="2" to-layer="1677" to-port="0" />
		<edge from-layer="1670" from-port="2" to-layer="1679" to-port="0" />
		<edge from-layer="1670" from-port="2" to-layer="1672" to-port="0" />
		<edge from-layer="1671" from-port="0" to-layer="1672" to-port="2" />
		<edge from-layer="1672" from-port="3" to-layer="1675" to-port="0" />
		<edge from-layer="1673" from-port="0" to-layer="1674" to-port="0" />
		<edge from-layer="1674" from-port="1" to-layer="1675" to-port="1" />
		<edge from-layer="1675" from-port="2" to-layer="1684" to-port="0" />
		<edge from-layer="1676" from-port="0" to-layer="1677" to-port="2" />
		<edge from-layer="1677" from-port="3" to-layer="1684" to-port="1" />
		<edge from-layer="1678" from-port="0" to-layer="1679" to-port="2" />
		<edge from-layer="1679" from-port="3" to-layer="1684" to-port="2" />
		<edge from-layer="1680" from-port="0" to-layer="1681" to-port="0" />
		<edge from-layer="1681" from-port="1" to-layer="1684" to-port="3" />
		<edge from-layer="1682" from-port="0" to-layer="1683" to-port="0" />
		<edge from-layer="1683" from-port="1" to-layer="1684" to-port="4" />
		<edge from-layer="1684" from-port="5" to-layer="1686" to-port="0" />
		<edge from-layer="1685" from-port="0" to-layer="1686" to-port="1" />
		<edge from-layer="1686" from-port="2" to-layer="1688" to-port="0" />
		<edge from-layer="1687" from-port="0" to-layer="1688" to-port="1" />
		<edge from-layer="1688" from-port="2" to-layer="1691" to-port="0" />
		<edge from-layer="1689" from-port="0" to-layer="1690" to-port="0" />
		<edge from-layer="1690" from-port="1" to-layer="1691" to-port="1" />
		<edge from-layer="1691" from-port="2" to-layer="1694" to-port="0" />
		<edge from-layer="1692" from-port="0" to-layer="1693" to-port="0" />
		<edge from-layer="1693" from-port="1" to-layer="1694" to-port="1" />
		<edge from-layer="1694" from-port="2" to-layer="1697" to-port="0" />
		<edge from-layer="1695" from-port="0" to-layer="1696" to-port="0" />
		<edge from-layer="1696" from-port="1" to-layer="1697" to-port="1" />
		<edge from-layer="1697" from-port="2" to-layer="1698" to-port="1" />
		<edge from-layer="1698" from-port="2" to-layer="1723" to-port="0" />
		<edge from-layer="1698" from-port="2" to-layer="1702" to-port="0" />
		<edge from-layer="1699" from-port="0" to-layer="1700" to-port="0" />
		<edge from-layer="1700" from-port="1" to-layer="1712" to-port="0" />
		<edge from-layer="1701" from-port="0" to-layer="1702" to-port="1" />
		<edge from-layer="1702" from-port="2" to-layer="1705" to-port="0" />
		<edge from-layer="1703" from-port="0" to-layer="1704" to-port="0" />
		<edge from-layer="1704" from-port="1" to-layer="1705" to-port="1" />
		<edge from-layer="1705" from-port="2" to-layer="1708" to-port="0" />
		<edge from-layer="1706" from-port="0" to-layer="1707" to-port="0" />
		<edge from-layer="1707" from-port="1" to-layer="1708" to-port="1" />
		<edge from-layer="1708" from-port="2" to-layer="1711" to-port="0" />
		<edge from-layer="1709" from-port="0" to-layer="1710" to-port="0" />
		<edge from-layer="1710" from-port="1" to-layer="1711" to-port="1" />
		<edge from-layer="1711" from-port="2" to-layer="1712" to-port="1" />
		<edge from-layer="1712" from-port="2" to-layer="1713" to-port="0" />
		<edge from-layer="1713" from-port="1" to-layer="1716" to-port="0" />
		<edge from-layer="1714" from-port="0" to-layer="1715" to-port="0" />
		<edge from-layer="1715" from-port="1" to-layer="1716" to-port="1" />
		<edge from-layer="1716" from-port="2" to-layer="1719" to-port="0" />
		<edge from-layer="1717" from-port="0" to-layer="1718" to-port="0" />
		<edge from-layer="1718" from-port="1" to-layer="1719" to-port="1" />
		<edge from-layer="1719" from-port="2" to-layer="1722" to-port="0" />
		<edge from-layer="1720" from-port="0" to-layer="1721" to-port="0" />
		<edge from-layer="1721" from-port="1" to-layer="1722" to-port="1" />
		<edge from-layer="1722" from-port="2" to-layer="1723" to-port="1" />
		<edge from-layer="1723" from-port="2" to-layer="1735" to-port="0" />
		<edge from-layer="1723" from-port="2" to-layer="1725" to-port="0" />
		<edge from-layer="1724" from-port="0" to-layer="1725" to-port="1" />
		<edge from-layer="1725" from-port="2" to-layer="1728" to-port="0" />
		<edge from-layer="1726" from-port="0" to-layer="1727" to-port="0" />
		<edge from-layer="1727" from-port="1" to-layer="1728" to-port="1" />
		<edge from-layer="1728" from-port="2" to-layer="1731" to-port="0" />
		<edge from-layer="1729" from-port="0" to-layer="1730" to-port="0" />
		<edge from-layer="1730" from-port="1" to-layer="1731" to-port="1" />
		<edge from-layer="1731" from-port="2" to-layer="1733" to-port="0" />
		<edge from-layer="1731" from-port="2" to-layer="1740" to-port="0" />
		<edge from-layer="1731" from-port="2" to-layer="1746" to-port="0" />
		<edge from-layer="1732" from-port="0" to-layer="1733" to-port="2" />
		<edge from-layer="1733" from-port="3" to-layer="1748" to-port="0" />
		<edge from-layer="1733" from-port="3" to-layer="1734" to-port="0" />
		<edge from-layer="1736" from-port="0" to-layer="1740" to-port="1" />
		<edge from-layer="1737" from-port="0" to-layer="1740" to-port="2" />
		<edge from-layer="1738" from-port="0" to-layer="1740" to-port="3" />
		<edge from-layer="1739" from-port="0" to-layer="1740" to-port="4" />
		<edge from-layer="1740" from-port="5" to-layer="1741" to-port="0" />
		<edge from-layer="1742" from-port="0" to-layer="1746" to-port="1" />
		<edge from-layer="1743" from-port="0" to-layer="1746" to-port="2" />
		<edge from-layer="1744" from-port="0" to-layer="1746" to-port="3" />
		<edge from-layer="1745" from-port="0" to-layer="1746" to-port="4" />
		<edge from-layer="1746" from-port="5" to-layer="1747" to-port="0" />
	</edges>
	<rt_info>
		<Runtime_version value="2025.2.0-19140-c01cd93e24d-releases/2025/2" />
		<conversion_parameters>
			<is_python_object value="False" />
		</conversion_parameters>
	</rt_info>
</net>
